avaxtar/model_pytorch1.pt (torch, 905217 bytes, 6 tensors)

fc1.weight f4 [300, 600]
0	0xbc8f4539	-0.017489063
1	0x3c8c9266	0.017159652
2	0xbdc514bd	-0.09623096
3	0x3d9086bc	0.070569485
4	0xbd12b508	-0.035817176
5	0xbd787b91	-0.060664717
6	0xbd9083f5	-0.07056419
7	0xbc87499c	-0.016514592
8	0xbe4a4535	-0.19752963
9	0x3ddaa06c	0.10675129
10	0x3d051284	0.03248836
11	0x3c4d3973	0.012525904
12	0x3c1fa94b	0.009744952
13	0x3cdc35eb	0.026881179
14	0xbd444abc	-0.047922835
15	0x3db119c1	0.0864749
16	0x3c9947cd	0.018710995
17	0x3d9bf2c2	0.07614662
18	0xbde8e38f	-0.11371528
19	0x3d8ed5fa	0.069744065
20	0xbdc8e4ec	-0.098092884
21	0xbc9202eb	-0.017823657
22	0x3db606cb	0.088880144
23	0x3dee8198	0.11645812
24	0xbde9a59f	-0.11408543
25	0x3d4470cd	0.047959138
26	0xbe03d835	-0.12875445
27	0x3c9559f2	0.018231366
28	0x3c696cb7	0.014247111
29	0xbdd99918	-0.106249034
30	0x3b4968cf	0.0030732637
31	0x3de5e01f	0.11224388
32	0x3c47e1f2	0.012199866
33	0x3cdac7cb	0.026706597
34	0xbd82648e	-0.063668355
35	0xbd7a9f43	-0.06118704
36	0xbcc49575	-0.023997048
37	0xbe188eeb	-0.14898269
38	0xbe418a8b	-0.18900506
39	0xbdaea09d	-0.08526728
40	0xbd4014be	-0.04689478
41	0x3d818bf8	0.06325525
42	0xbdcab5cf	-0.098979585
43	0x3e1d75bf	0.15376948
44	0xbb1c922e	-0.002389084
45	0x3abc011c	0.0014343592
46	0xbcf54f96	-0.029945176
47	0xbce52049	-0.027969496
48	0x3dc5ac33	0.09651985
49	0x3c5fd518	0.013661645
50	0x3d1edec4	0.038786665
51	0x3de3d8ff	0.11125373
52	0xbcb3dd93	-0.02195624
53	0x3e066e5e	0.13128039
54	0xbad3f9a1	-0.0016172418
55	0xbd0bee10	-0.03416258
56	0xbd8c43a5	-0.0684884
57	0xbb1a0f18	-0.0023507532
58	0xbe19f656	-0.15035376
59	0xbd04259e	-0.032262437
60	0xbd24d0aa	-0.04023806
61	0xbd57bf79	-0.052672837
62	0xbd02616c	-0.03183119
63	0x3d40c101	0.047059063
64	0xbd4f7096	-0.05064448
65	0xbe3061a5	-0.17224748
66	0xbd2b122a	-0.04176537
67	0xbde7ceaa	-0.11318715
68	0xbcaece22	-0.021338526
69	0x3dcd5412	0.10025801
70	0xb8519d65	-4.9976068e-05
71	0x3c79dc4b	0.015250276
72	0x3c19bd02	0.009383442
73	0x3d1819c0	0.037133932
74	0x3d2adbcc	0.04171352
75	0x3c7f766f	0.015592202
76	0x3e2ddbe3	0.16978411
77	0x3cf49107	0.02985431
78	0x3dd81ed7	0.10552757
79	0xbca72317	-0.020402474
80	0xbc2c61c7	-0.010521359
81	0xbc761281	-0.01501906
82	0x3e4e27fe	0.20132443
83	0x3e02145c	0.12703079
84	0x3d83b3f0	0.06430805
85	0xbca8d37d	-0.020608658
86	0x3cf34747	0.029697074
87	0xbde42ee6	-0.11141758
88	0xbdb61efa	-0.08892627
89	0x3c85625c	0.016282253
90	0x3de78df9	0.11306376
91	0x3e23682f	0.15957712
92	0x3d51de8a	0.05123762
93	0x3ca8f3db	0.020624092
94	0x3d277b62	0.04088915
95	0xbd88778a	-0.06663425
96	0xbdc36809	-0.095413275
97	0xbd66dce1	-0.05636299
98	0x3dd1102c	0.10208163
99	0x3c8833e2	0.016626302
100	0xbcf01058	-0.029304668
101	0xbc13ba5c	-0.0090165995
102	0x3d11151b	0.03542052
103	0xbe2cd26f	-0.16877149
104	0x3ca0900e	0.01959994
105	0x3df23087	0.11825662
106	0xbcae7c99	-0.021299647
107	0xbd3a5b43	-0.04549719
108	0xbcca3aa8	-0.024686173
109	0xbd1158cc	-0.035485074
110	0xbd8ad7c1	-0.06779433
111	0xbde6eb9a	-0.11275406
112	0xbdcf4f53	-0.10122552
113	0xbda2ac47	-0.079430155
114	0x3da8b7d1	0.08238185
115	0xbded294b	-0.11580142
116	0x3daa512f	0.08316266
117	0x3dec7a90	0.115468144
118	0x3ca3039c	0.019899182
119	0xbd48b38c	-0.048999354
120	0xbdfcaf85	-0.12338165
121	0x3cda53e5	0.026651332
122	0x3d9b2a67	0.07576447
123	0x3de36225	0.11102704
124	0xbd5f85f5	-0.05457111
125	0xbd1ea5a5	-0.03873219
126	0x3e0de1ce	0.13855669
127	0xbe0c818f	-0.13721298
128	0xbc763016	-0.015026113
129	0x3c9fe787	0.01951958
130	0x3ce2a788	0.027667776
131	0xbd86736b	-0.06564983
132	0x3cffc513	0.031221902
133	0x3e066cf0	0.13127494
134	0x3c8c4ae6	0.017125558
135	0xbe4c2c41	-0.19938757
136	0xbd4e81f1	-0.05041689
137	0xbe00f13b	-0.12592022
138	0xbb5feda6	-0.003416875
139	0x3d08cc81	0.033398155
140	0xbd431a80	-0.047632694
141	0x3b3b9228	0.0028621051
142	0x3c3c6235	0.011498024
143	0x3c85f9bc	0.016354434
144	0xbdbb6369	-0.0914982
145	0xbd3effc9	-0.046630654
146	0x3d40d031	0.047073547
147	0x3db0b5a9	0.08628399
148	0xbbf0d869	-0.007350017
149	0x3d71f3f8	0.059070557
150	0x3df5059f	0.11963963
151	0xbc8fb46e	-0.01754209
152	0x3dc3a33d	0.095526196
153	0x3d48405d	0.048889507
154	0xbd22fabd	-0.039789904
155	0x3dfcb566	0.123392865
156	0x3d5e705a	0.054306366
157	0xbdb9094a	-0.09034975
158	0x3d0785f4	0.033086732
159	0xbda18a81	-0.07887746
160	0xbd102d6c	-0.035199568
161	0x3ddbba36	0.10728876
162	0xbaff70ab	-0.0019488534
163	0x3d8540e0	0.065065145
164	0xbe2692fd	-0.16267009
165	0x3d355df8	0.04427907
166	0x3c87dd6d	0.016585076
167	0x3d607589	0.05479959
168	0xbc5fdcdf	-0.0136635
169	0xbe3daa98	-0.18522108
170	0x3d8e0c69	0.06935961
171	0xba58415c	-0.00082494854
172	0x3c2d62e1	0.010582657
173	0x3daed0da	0.08535929
174	0xbdc6236d	-0.09674726
175	0xbcdb2c04	-0.026754387
176	0xbe161f11	-0.14660288
177	0xbdab6c8a	-0.083703116
178	0x3d45cba7	0.04828992
179	0xbce34477	-0.027742608
180	0x3de4dd49	0.11175019
181	0xbc84b640	-0.016200185
182	0xbd39efb9	-0.045394633
183	0xbe053103	-0.13006978
184	0x3e02114d	0.12701912
185	0xbd29510f	-0.04133707
186	0x3d8c3421	0.0684588
187	0x3dd4f9a1	0.103991754
188	0xbd9bf891	-0.0761577
189	0xbe03a50b	-0.12855928
190	0x3e3a2123	0.18176703
191	0xbce76df2	-0.028250668
192	0x3db9a861	0.09065319
193	0xbc26d6b5	-0.010183026
194	0x3d118b2e	0.035533123
195	0x3d011cce	0.03152161
196	0xbd8a5dbf	-0.06756162
197	0x3dde9c0c	0.10869607
198	0x3e12d13e	0.14337632
199	0x3dbe38e4	0.09288195
200	0x3c20dd27	0.009818352
201	0xbd64eb34	-0.05588837
202	0x3d97b09f	0.07406735
203	0xbddbfd78	-0.10741705
204	0xbca1d89c	-0.019756608
205	0x3d95d59e	0.07316135
206	0xbdb7574d	-0.08952198
207	0x3dcd3a5f	0.10020899
208	0x3e4e38ed	0.20138903
209	0x3b729d6d	0.0037020103
210	0xbcdd2405	-0.026994715
211	0x3cc50d31	0.024054142
212	0x3e0731cb	0.13202588
213	0xbc6f845a	-0.014618957
214	0xbd038d26	-0.03211703
215	0x3c76b33a	0.015057379
216	0x3d8e4495	0.06946675
217	0xbc743932	-0.014906215
218	0x3d1848ce	0.037178807
219	0xbd028e10	-0.031873763
220	0xbdb97850	-0.09056151
221	0xbd1b5815	-0.0379258
222	0xbdb3b40b	-0.08774575
223	0x3d0acb73	0.03388543
224	0xbd83df11	-0.06439031
225	0xbda1f904	-0.07908824
226	0x3d9b32ac	0.07578024
227	0x3d7e6e36	0.062116824
228	0x3df5afac	0.119963974
229	0x3d5eaa1a	0.05436144
230	0x3e2c0568	0.16798937
231	0xbd80b58a	-0.06284626
232	0x3d250b80	0.04029417
233	0x3cf407da	0.0297889
234	0xbe01027c	-0.12598604
235	0xbcc9d876	-0.02463935
236	0x3c0c6940	0.008570015
237	0xbc501a86	-0.012701636
238	0xbd372bbd	-0.044719446
239	0x3e1b1983	0.1514645
240	0xbdda0506	-0.106454894
241	0xba7f16e2	-0.0009730888
242	0xbd0e6a18	-0.034769148
243	0x3daff824	0.08592251
244	0xbd097664	-0.03356017
245	0xbd5807f1	-0.05274195
246	0xbdff1d8d	-0.12456808
247	0x3dfbfa1d	0.12303565
248	0x3cac4653	0.021029627
249	0x3bf2d57e	0.007410704
250	0x3dec2696	0.11530797
251	0xbc9e6b62	-0.019338313
252	0xbd1de9ba	-0.038552977
253	0xbe3595ca	-0.17732921
254	0x3dace8ee	0.08442865
255	0x3d656a03	0.056009304

fc1.bias f4 [300]
0	0xbe1deb66	-0.15421829
1	0xbe02e571	-0.12782837
2	0xbd022599	-0.031774137
3	0x3e1e352b	0.1544997
4	0x3dae164c	0.085003465
5	0xbd0a3901	-0.03374577
6	0x3d610abb	0.054941874
7	0xbd7b8a02	-0.06141091
8	0x3dacd229	0.08438522
9	0xbd8f2b99	-0.069907375
10	0x3e0701df	0.13184308
11	0xbc680b5b	-0.014162864
12	0x3db3316f	0.08749663
13	0xbdd59e32	-0.10430564
14	0x3d8abc90	0.06774247
15	0x3e0c850e	0.13722631
16	0xbe348ebd	-0.17632575
17	0x3d3a651d	0.045506585
18	0x3e0ebfe0	0.13940382
19	0xbe1cc99b	-0.15311281
20	0xbe12a7a8	-0.14321768
21	0xbd6c7b70	-0.057734907
22	0xbeb5469d	-0.35405436
23	0x3e90e74c	0.28301466
24	0x3d8b26f7	0.06794541
25	0xbdcfadd8	-0.1014058
26	0x3e7753c4	0.24153048
27	0x3e3b7219	0.18305244
28	0xbe2c233f	-0.1681032
29	0x3e86abc7	0.2630293
30	0x3df45cca	0.119317606
31	0xbcb1adcc	-0.021689318
32	0x3d541623	0.051778924
33	0xbe516774	-0.2044962
34	0xbd3a9e03	-0.045560848
35	0x3e0110d7	0.1260408
36	0x3e76bcd8	0.24095476
37	0xbd8c9916	-0.06865136
38	0xbcd80053	-0.026367342
39	0xbe865565	-0.26237026
40	0x3e22c1fa	0.15894309
41	0xbd039016	-0.032119833
42	0xbdbc1428	-0.09183532
43	0xbe22b7d2	-0.15890434
44	0xbdcb5455	-0.099281944
45	0x3cd2da2e	0.025738802
46	0x3e5c298a	0.21500221
47	0x3ce2a972	0.027668688
48	0x3d5e9ae8	0.05434695
49	0xbddca5dc	-0.10773823
50	0x3d25a41a	0.040439703
51	0x3ddf876d	0.10914502
52	0xbd468621	-0.04846776
53	0x3d63a94e	0.055581383
54	0x3d66b2df	0.05632293
55	0x3e26b0b7	0.16278349
56	0x3dc80bbc	0.09767863
57	0xbe75bf07	-0.23998652
58	0xbe21575d	-0.15755983
59	0xbe84946a	-0.2589448
60	0x3d898446	0.06714682
61	0xbe056bf2	-0.13029459
62	0x3e61cc7b	0.2205066
63	0xbdd5e4b8	-0.10444015
64	0xbe81f510	-0.2538228
65	0x3e7194b9	0.2359189
66	0x3de04520	0.109506845
67	0xbe3c4e2b	-0.18389194
68	0xbd82ffd1	-0.06396449
69	0xbe69c269	-0.22828068
70	0x3e4f8667	0.20266114
71	0x399bb0d2	0.00029695645
72	0xbe0c1a59	-0.13681926
73	0x3d53dc99	0.05172405
74	0x3e23eaa3	0.16007476
75	0xbdc505c6	-0.09620242
76	0x3de359be	0.11101101
77	0xbdbbbca7	-0.09166842
78	0x3eac8fdd	0.3370351
79	0xbe1ba959	-0.1520132
80	0x3e920598	0.28519893
81	0x3dba5f93	0.091002606
82	0xbd0dd303	-0.034625065
83	0x3e8ae7a3	0.2712985
84	0xbe2deb2b	-0.1698424
85	0x3e7edd44	0.24889094
86	0x3e58de65	0.21178587
87	0x3e29b2da	0.16572133
88	0xbdfdbddd	-0.12389729
89	0xbdf7d81d	-0.12101767
90	0x3e328f38	0.17437446
91	0x3e50b4bc	0.20381445
92	0xbd8442c7	-0.06458049
93	0x3e36aeb3	0.1784008
94	0x3e0ac051	0.13549925
95	0x3cd44d60	0.025915802
96	0x3dedcdee	0.116115436
97	0x3e20b0ab	0.15692393
98	0xbe0fba3d	-0.14035888
99	0xbd997736	-0.07493441
100	0x3e208809	0.15676893
101	0x3d88a0c5	0.06671289
102	0xbe1c2371	-0.15247895
103	0xbe1fb88b	-0.15597741
104	0x3e6228df	0.22085904
105	0x3d548128	0.051880985
106	0xbe38d95d	-0.18051668
107	0x3d744693	0.059637617
108	0xbd8f2e82	-0.069912925
109	0xbd94d094	-0.072663456
110	0x3e2477d1	0.16061331
111	0xbe56fb67	-0.2099434
112	0xbe19514c	-0.14972419
113	0xbd066e9f	-0.03282034
114	0xbe0e06b7	-0.13869749
115	0x3e1c8167	0.15283738
116	0xbcb8d7ce	-0.022563841
117	0xbdd0044a	-0.10157068
118	0xbd752134	-0.059846118
119	0xbe830191	-0.25587133
120	0xbe0ef864	-0.13961941
121	0xbde1d1ce	-0.11026345
122	0xbdd8eb14	-0.105917126
123	0x3e383dc3	0.1799231
124	0xbdf523a1	-0.11969686
125	0x3e5578fd	0.20846935
126	0xbe20e032	-0.15710524
127	0xbe2c8fe8	-0.16851771
128	0x3e686c8b	0.22697656
129	0x3e314501	0.17311479
130	0xbc9d4fbe	-0.019203063
131	0x3e363ea3	0.17797332
132	0xbe6b8b4d	-0.23002358
133	0xbeab63a1	-0.33474448
134	0x3cc36233	0.023850536
135	0x3d9a7108	0.0754109
136	0xbe67610d	-0.22595616
137	0x3d9abe5e	0.07555841
138	0x3e518c9f	0.20463799
139	0xbe844d8d	-0.25840417
140	0x3e11aca5	0.14226015
141	0xbe43102f	-0.19049142
142	0x3d2b71d5	0.041856606
143	0xbe5dc094	-0.21655494
144	0x3df5fb61	0.12010837
145	0x3e5bf06e	0.21478435
146	0x3e54fc7b	0.20799439
147	0xbe0c4523	-0.13698249
148	0x3e6d442f	0.23170541
149	0xbe36e688	-0.17861378
150	0xbcc2f3b0	-0.02379784
151	0x3e2ec74e	0.17068216
152	0x3e77f2ca	0.2421371
153	0x3e63960e	0.2222521
154	0xbe61eb42	-0.220624
155	0x3bc72394	0.0060772393
156	0x3ea859ec	0.32881105
157	0x3d34f7df	0.0441817
158	0xbe574161	-0.21021034
159	0xbd0e32be	-0.03471636
160	0x3d8f7df9	0.07006449
161	0xbdf72bdb	-0.12068912
162	0x3e505f30	0.20348811
163	0xbc5dc83c	-0.013536509
164	0xbb22a2a4	-0.002481618
165	0x3b3f7626	0.002921471
166	0xbeafcbbb	-0.34335122
167	0x3da7ff12	0.08202948
168	0x3df745cd	0.1207386
169	0x3c397a26	0.011320626
170	0x3cfaea64	0.030629344
171	0x3d8db9d6	0.06920211
172	0x3e1cf46c	0.15327615
173	0xbe18ef4c	-0.14935035
174	0x3d9c09c2	0.07619049
175	0xbe2da448	-0.169572
176	0x3def494d	0.11683903
177	0xbc99f669	-0.018794255
178	0xbd9ca0b7	-0.076478414
179	0xbcc8e621	-0.024523797
180	0xbe4260d4	-0.1898225
181	0x3d6a0e1a	0.057142355
182	0x3e158f3e	0.14605424
183	0x3e2165af	0.15761445
184	0xbe429685	-0.19002731
185	0x3b84bcfb	0.0040508485
186	0xbdbf6de4	-0.09347132
187	0x3e184693	0.14870672
188	0x3e22c7d1	0.15896536
189	0xbe5cbf8b	-0.21557443
190	0xbe4784d1	-0.19484259
191	0x3eaed809	0.34149197
192	0x3d97b0b4	0.0740675
193	0xbde69f99	-0.112609096
194	0xbe38da17	-0.18051945
195	0x3dd62d49	0.10457856
196	0xbccc168f	-0.0249131
197	0xbe42fc06	-0.19041452
198	0x3e1cbc35	0.1530617
199	0x3b368d0b	0.0027855064
200	0xbdd62125	-0.104555406
201	0x3dcf1716	0.10111825
202	0xbe1813a5	-0.14851244
203	0xbe29b0cd	-0.1657135
204	0xbe7a3425	-0.24433954
205	0x3e0334b1	0.12813069
206	0x3de2d6e4	0.110761434
207	0xbe043a8e	-0.12912962
208	0x3e3e2bc7	0.18571387
209	0xbddc51b7	-0.10757773
210	0xbe957bae	-0.29195923
211	0x3e19d37c	0.15022081
212	0xbe47e30a	-0.19520202
213	0xbd97727a	-0.073948815
214	0xbd43151c	-0.047627553
215	0x3dc4cb6c	0.09609112
216	0x3dcc0f93	0.09963908
217	0xbe0f6b45	-0.14005764
218	0xbcde38ff	-0.027126787
219	0x3e384790	0.17996049
220	0xbd031f08	-0.032012016
221	0x3e96379b	0.293393
222	0x3e783c1c	0.2424168
223	0xbbffe583	-0.0078093424
224	0xbd3913b8	-0.04518482
225	0xbe2661f6	-0.16248307
226	0x3e02730a	0.12739196
227	0xbe615ff8	-0.22009265
228	0x3e4e42c1	0.20142652
229	0xbce5dc31	-0.028059097
230	0xbe0ef0e6	-0.13959083
231	0x3e2fa200	0.17151642
232	0xbe608c95	-0.21928628
233	0xbd7c991b	-0.06166945
234	0x3d31948d	0.04335456
235	0x3e140cf5	0.14458068
236	0xbe0a29cf	-0.13492511
237	0x3e7df2bb	0.24799626
238	0xbe25f5e4	-0.16207081
239	0xbe7e7ce5	-0.24852331
240	0x3daf0847	0.08546501
241	0x3db60407	0.08887487
242	0xbc7d729e	-0.015469221
243	0xbde75f23	-0.11297443
244	0x3e5b9971	0.21445252
245	0x3e404850	0.18777585
246	0xbd1419fd	-0.036157597
247	0xbe65354f	-0.22383617
248	0x3e5b231a	0.21400109
249	0xbcaa9991	-0.02082518
250	0x3e57e69c	0.21084064
251	0xbeaa63cb	-0.3327926
252	0xbce102a8	-0.027467087
253	0xbd58fbc8	-0.052974492
254	0xbe9f0183	-0.3105584
255	0x3ec73d0c	0.38913763

fc2.weight f4 [150, 300]
0	0x3d3d9c91	0.04629189
1	0x3d3d8804	0.046272293
2	0xbdde61a3	-0.108584665
3	0x3cfcad74	0.030844428
4	0x3dc7da47	0.0975843
5	0xbe4bcc3a	-0.19902125
6	0xbdd2563e	-0.10270356
7	0xbd1eaf4e	-0.038741402
8	0x3e11774b	0.14205663
9	0xbcfaa5f4	-0.03059671
10	0xbdf628a0	-0.12019467
11	0xbe19c960	-0.15018225
12	0x3ddf7c98	0.10912436
13	0xbe2bdddd	-0.16783853
14	0x3d1e446a	0.038639463
15	0xbd7247b8	-0.059150428
16	0x3d3f1239	0.046648238
17	0xbd479399	-0.048724744
18	0x3e98592d	0.29755536
19	0xbe8e1110	-0.27747393
20	0xbec5ab00	-0.38607025
21	0xbd57bb3f	-0.052668806
22	0x3cb4a57f	0.022051571
23	0x3deb856b	0.11500057
24	0xbe1d7495	-0.15376504
25	0xbb2f19ae	-0.0026718187
26	0x3db6ee0a	0.08932121
27	0xbc1e3ded	-0.009658319
28	0xbd497c96	-0.04919108
29	0x3db1901e	0.08670066
30	0x3d263cce	0.04058533
31	0x3e66bf2f	0.22533868
32	0x3dc5383b	0.09629866
33	0xbe00bc87	-0.12571917
34	0x3d618d9f	0.0550667
35	0x3d458e49	0.048231397
36	0xbc6bfc52	-0.01440342
37	0x3d6bc636	0.057562076
38	0x3d34c631	0.044134323
39	0x3d895cf5	0.06707183
40	0x3f19a16b	0.6001193
41	0x3dcfcfdb	0.10147067
42	0x3a42abc4	0.0007426108
43	0x3b0b0368	0.0021211747
44	0x3bc67325	0.0060562068
45	0xbdb88496	-0.09009664
46	0x3ea855cb	0.32877955
47	0xbd9092ad	-0.07059226
48	0x3d51b7f4	0.051200822
49	0x3d98fbb3	0.07469883
50	0x3d2be825	0.041969437
51	0x3da05a5a	0.07829733
52	0xbe0f8d84	-0.14018828
53	0xbc774365	-0.015091752
54	0x3df93a5d	0.12169335
55	0xbe492b7b	-0.19645493
56	0x3d60ea58	0.054910988
57	0x3cc1ef8f	0.0236738
58	0xbdd00233	-0.101566695
59	0x3d5d1bd5	0.05398162
60	0xbe24ed24	-0.16106087
61	0xbc026641	-0.00795895
62	0x3c86727a	0.016412009
63	0xbe6d2f9e	-0.23162696
64	0xbd857c53	-0.065178536
65	0x3d26e7b7	0.040748324
66	0xbd7629fb	-0.06009863
67	0xbc66ea7a	-0.0140939895
68	0x3cc17263	0.023614114
69	0xbe83c8dc	-0.2573918
70	0xbcc90cc6	-0.024542224
71	0xbadc3b7f	-0.0016802399
72	0xbe43dd0b	-0.1912729
73	0x3d4bdb42	0.049769647
74	0xbdbceb3d	-0.09224556
75	0xbe228bb3	-0.15873604
76	0x3e2ea68d	0.17055722
77	0x3e27e56e	0.16396114
78	0x3b7ff11a	0.003905362
79	0xbd032ffd	-0.032028187
80	0x3d065e97	0.03280505
81	0xbd11c1f3	-0.035585355
82	0x3d437bbe	0.04772543
83	0xbcfbe2eb	-0.030747851
84	0x3df64108	0.120241225
85	0xbdd61765	-0.10453681
86	0x3e7d3736	0.24728093
87	0xbd44b5c9	-0.048024926
88	0xbc65cee9	-0.014026382
89	0xbcc500f8	-0.024048313
90	0x3e258b61	0.1616645
91	0x3f1699f5	0.5882867
92	0xbe5c360c	-0.21504992
93	0x3dc2fe98	0.09521216
94	0x3d97e4f3	0.074167155
95	0xbd63f25a	-0.055651046
96	0xbdd72bc8	-0.105063975
97	0x3d995b7d	0.07488153
98	0xbe0ec9ce	-0.1394417
99	0xbe0ade61	-0.13561393
100	0xbca09984	-0.019604452
101	0x3dafffb1	0.08593691
102	0xbf183aa4	-0.5946448
103	0xbe1647fd	-0.14675899
104	0xbdb5e05c	-0.08880684
105	0x3db77b3d	0.08959053
106	0xbef38f46	-0.47570246
107	0x3d6ee4f0	0.0583238
108	0x3e908a79	0.28230646
109	0x3e8c5f87	0.27416632
110	0x3e02da93	0.12778692
111	0xbea8ff9d	-0.33007517
112	0xbe895885	-0.26825348
113	0x3ca3835e	0.019960102
114	0xbe9391dc	-0.2882222
115	0xbcf5d137	-0.030006988
116	0xbdb8bd61	-0.09020496
117	0xbd99c772	-0.07508744
118	0xbd5731da	-0.052537777
119	0xbd408429	-0.047001038
120	0xbdcb289b	-0.09919854
121	0xbe60b2ab	-0.21943156
122	0x3dd59ce6	0.104303166
123	0x3efc41c4	0.49268925
124	0xbd84e3e4	-0.06488779
125	0x3e02e43c	0.12782377
126	0x3d0d9b66	0.034572028
127	0xbde6e920	-0.11274934
128	0x3e37e6f3	0.17959194
129	0x3e91a990	0.28449678
130	0xba9790f5	-0.0011563586
131	0x3db3480c	0.08753976
132	0xbbf46471	-0.0074582626
133	0xbdae821b	-0.085209094
134	0xbbde0754	-0.006775776
135	0x3d612943	0.05497099
136	0x3dad75b3	0.08469715
137	0x3d54ddcf	0.051969346
138	0x3df0b3d8	0.117530525
139	0x3c684fbc	0.014179166
140	0x3ce9ff98	0.02856426
141	0xbda594ed	-0.08085046
142	0x3c83c923	0.01608712
143	0xbf83c131	-1.0293332
144	0xbd847ae1	-0.0646875
145	0x3e856b27	0.26058313
146	0x3e27f892	0.16403416
147	0x3deafa62	0.11473538
148	0xbca6cb21	-0.020360531
149	0xbe1df845	-0.15426739
150	0x3d9c2653	0.07624497
151	0xbd08ed02	-0.033429153
152	0x3f4a84c7	0.7910885
153	0x3c6bfa9f	0.014403014
154	0x3d06b721	0.03288949
155	0xbd259bd5	-0.040431816
156	0x3dc2021f	0.09473061
157	0xbcd20db7	-0.025641305
158	0xbd1fa8ac	-0.038979217
159	0xbe1f2e4f	-0.15545009
160	0x3da55a27	0.08073836
161	0xbda0bc9b	-0.07848474
162	0x3dffe342	0.12494518
163	0xbda38b59	-0.07985563
164	0x3d023ba2	0.03179515
165	0xba3dd896	-0.00072420517
166	0x3d01ba5b	0.031671863
167	0x3b2e5480	0.002660066
168	0x3e350405	0.17677315
169	0xbd787a47	-0.060663488
170	0x3e2448bc	0.16043371
171	0x3e0b8913	0.13626508
172	0x3da91ad4	0.0825707
173	0xbe3ee52f	-0.18642114
174	0x3db643c4	0.08899644
175	0xbd83ed11	-0.06441701
176	0x3db5f908	0.088853896
177	0xbc5c20e4	-0.013435576
178	0xbebd7364	-0.370021
179	0x3e592ee4	0.21209294
180	0x3cc7a187	0.024369014
181	0x3e72438f	0.23658584
182	0x3dde8077	0.108643465
183	0x3eb167e6	0.3464958
184	0x3d5aeff5	0.053451497
185	0xbe310c66	-0.17289886
186	0xbd249bb3	-0.04018755
187	0x3e429399	0.19001617
188	0xbd98db50	-0.074637055
189	0xbd1f10c5	-0.038834352
190	0x3d9eac45	0.077477016
191	0xbcb53820	-0.022121489
192	0xbc1de834	-0.009637881
193	0xbd05c2aa	-0.03265635
194	0xbce382cf	-0.027772335
195	0x3c0bc1b8	0.008530073
196	0x3b061d84	0.002046437
197	0x3d01cff7	0.03169247
198	0x3e2c20de	0.16809413
199	0x3d3cfc11	0.046138827
200	0xbdb58f82	-0.088652626
201	0xbd84bd9f	-0.0648148
202	0xbea54a37	-0.32283184
203	0xbd0803e7	-0.033206847
204	0xbbda07a7	-0.0066537443
205	0x3e0c8425	0.13722284
206	0xbd6141c2	-0.054994352
207	0x3caba0b0	0.020950645
208	0xbb47d6df	-0.0030493063
209	0xbd21e85e	-0.039528243
210	0xbcf2c73c	-0.029636018
211	0xbde803d7	-0.113288574
212	0xbb3b0018	-0.0028533991
213	0xbc34e90f	-0.011041894
214	0x3e03484c	0.12820548
215	0xbd2cdcab	-0.042202633
216	0xbe252ca2	-0.16130307
217	0xbe2c8c16	-0.16850314
218	0x3e0ec701	0.13943101
219	0x3d7e69f1	0.062112752
220	0x3e56f40e	0.20991537
221	0xbcdba7e8	-0.026813462
222	0xbd23cbb2	-0.03998918
223	0xbd4d6c3e	-0.050152056
224	0xbc92941f	-0.017892895
225	0xbf083947	-0.532124
226	0xbcbd73a4	-0.02312643
227	0xbcdbf50a	-0.026850242
228	0xbd1f5c6e	-0.038906507
229	0x3cd6f652	0.026240502
230	0x3cad3cf0	0.021147221
231	0x3e6ab421	0.22920276
232	0xbb14992d	-0.0022674308
233	0x3e076356	0.13221487
234	0x3b9af686	0.004729095
235	0x3d21f653	0.039541554
236	0xbca6b53c	-0.020350091
237	0xbd832489	-0.06403453
238	0xbcbf89cd	-0.023381138
239	0x3d38f4f0	0.045155466
240	0x3c839f9d	0.01606732
241	0x3e6869e1	0.2269664
242	0xbb95e648	-0.004574571
243	0xbe5a9032	-0.21344069
244	0x3cb38122	0.021912161
245	0xbd0a9807	-0.03383639
246	0x3caff326	0.021478247
247	0xbcfdf892	-0.031002317
248	0x3dd2c565	0.10291556
249	0x3d00558c	0.031331584
250	0x3f206e3d	0.6266821
251	0xbdb127c8	-0.08650166
252	0xbd65b52c	-0.056080982
253	0x3c8f1f08	0.017470852
254	0x3d401856	0.04689821
255	0x3c5c467b	0.013444538

fc2.bias f4 [150]
0	0x3e4f0a2b	0.20218723
1	0x3e056b19	0.13029136
2	0xbe166793	-0.14687948
3	0x3e352097	0.17688213
4	0xbe320865	-0.17386015
5	0x3ea697d8	0.32537723
6	0xbe560a57	-0.20902382
7	0xbeb7168f	-0.35759398
8	0xbe359561	-0.17732765
9	0x3e448f54	0.191953
10	0x3cc12663	0.023577875
11	0xbe000271	-0.12500931
12	0xbe813910	-0.25238848
13	0xbd63afb2	-0.055587478
14	0xbe2292cc	-0.15876311
15	0x3da0e12d	0.07855449
16	0x3efa6192	0.48902565
17	0x3e4a225b	0.19739668
18	0xbe8ec0db	-0.27881512
19	0xbe8aec60	-0.27133465
20	0x3ecff5df	0.40617272
21	0xbc8d712f	-0.017265884
22	0xbe939cd0	-0.28830576
23	0xbe073ea6	-0.13207492
24	0xbeb15b6f	-0.3464007
25	0xbe0876da	-0.13326588
26	0xbcfbf207	-0.030755056
27	0x3e05bfc7	0.13061439
28	0xbe33c2c9	-0.17554773
29	0xbdf3b661	-0.119000204
30	0x3dae9720	0.085249186
31	0x3e0e0feb	0.1387326
32	0x3e8e1c8d	0.27756158
33	0x3e8976d6	0.26848477
34	0xbe2231e1	-0.1583934
35	0x3c0a3532	0.008435534
36	0x3dc7feac	0.09765372
37	0x3e538c1a	0.20658913
38	0xbf000d5c	-0.50020385
39	0xbd5e9050	-0.054336846
40	0x3e8581bc	0.26075542
41	0x3d78a207	0.060701396
42	0x3eabe3ab	0.33572134
43	0x3e727961	0.23679115
44	0x3e87b111	0.26502278
45	0x3d845edb	0.06463405
46	0xbe64062c	-0.2226798
47	0x3dff3757	0.12461727
48	0x3d5ae786	0.053443454
49	0xbce3c04f	-0.02780166
50	0x3e151b7f	0.1456127
51	0xbd9e95f5	-0.07743446
52	0xbe204823	-0.15652518
53	0xbe45bbe7	-0.1930996
54	0xbe000dd4	-0.12505275
55	0x3dde79ed	0.10863099
56	0x3e589138	0.21149147
57	0x3e2f39ef	0.17111944
58	0x3d1dd911	0.03853709
59	0xbdf267ef	-0.1183623
60	0x3e85c638	0.2612779
61	0xbedc23c3	-0.42996034
62	0x3de09bd8	0.10967225
63	0xbe8a77f2	-0.27044636
64	0x3ec1ce1b	0.37852558
65	0x3e2f0853	0.17093019
66	0xbe1157d2	-0.14193657
67	0x3e9c4a88	0.30525613
68	0xbd1439db	-0.036187988
69	0xbe3cd08b	-0.18438928
70	0x3c707707	0.014676816
71	0xbe6babc4	-0.23014742
72	0xbe6d0499	-0.23146285
73	0x3d20649a	0.03915844
74	0x3e451fa2	0.19250348
75	0x3ea5b730	0.32366323
76	0x3e2aa160	0.16663122
77	0x3bc614bd	0.0060449527
78	0xbd9cd9ab	-0.07658704
79	0xbdc8bbc3	-0.09801438
80	0x3e52747a	0.20552245
81	0x3e534fcd	0.2063591
82	0xbdf36061	-0.11883617
83	0xbead8c56	-0.3389613
84	0xbcba904c	-0.022773884
85	0x3d35e829	0.04441086
86	0xbd217689	-0.039419685
87	0xbe67ff12	-0.22655895
88	0xbe9b332f	-0.30312487
89	0xbdbe3d74	-0.09289065
90	0xbdf1aafe	-0.11800192
91	0x3e48cd60	0.19609594
92	0xbd1e8e17	-0.038709726
93	0x3e69ba5f	0.22825001
94	0xbe7980df	-0.24365567
95	0x3d6c4dcd	0.057691384
96	0xbea1024b	-0.31447062
97	0x3e3fd6df	0.1873431
98	0x3de6ec4d	0.112755395
99	0x3d26d930	0.04073447
100	0x3e2d213f	0.16907214
101	0xbe509269	-0.20368351
102	0xbe31145b	-0.17292921
103	0xbe55355a	-0.20821133
104	0xbda9a832	-0.08284034
105	0x3cd081a2	0.025452439
106	0x3e1eb249	0.15497698
107	0x3d466d97	0.048444357
108	0x3e9d976b	0.30779585
109	0xbca61c37	-0.020277126
110	0x3e5f3159	0.21796168
111	0xbe06e2ad	-0.13172407
112	0xbe9a08ec	-0.30084932
113	0xbd834273	-0.064091586
114	0xbd8827a1	-0.066481836
115	0xbdeb1ff1	-0.11480702
116	0xbdb722c0	-0.08942175
117	0x3ed9d21e	0.4254312
118	0xbec81162	-0.39075762
119	0xbe6a819a	-0.22901002
120	0xbec5e81b	-0.38653645
121	0x3ddd58df	0.108079664
122	0xbdc9d578	-0.09855169
123	0x3e2c823f	0.1684656
124	0xbe5da746	-0.21645841
125	0x3e81d3a0	0.2535677
126	0xbebafd25	-0.3652126
127	0x3da2b60b	0.07944878
128	0x3c791586	0.0152028855
129	0xbed0e21b	-0.40797505
130	0xbc4240e2	-0.01185629
131	0xbcf832b3	-0.030297613
132	0xbeaa81f1	-0.33302262
133	0x3dcfec8f	0.10152542
134	0x3e1ceb02	0.15324023
135	0x3dcadb61	0.099051245
136	0xbe06cd35	-0.13164218
137	0xbdc0ab0a	-0.09407623
138	0xbe1a2474	-0.15052968
139	0xbed5c30b	-0.41750368
140	0x3e9678cb	0.29389033
141	0x3d8315e6	0.06400661
142	0x3e6ad9aa	0.22934595
143	0x3e642232	0.2227867
144	0xbe81a403	-0.25320444
145	0xbe2149a6	-0.15750751
146	0xbf048fe0	-0.51782036
147	0xbe9e1412	-0.30874687
148	0x3ce89436	0.028390985
149	0x3eabbb68	0.33541417

fc3.weight f4 [2, 150]
0	0xbddcc18e	-0.10779105
1	0x3d25c3c2	0.040469892
2	0x3d96c4be	0.07361744
3	0xbce7aab6	-0.028279644
4	0x3db4a725	0.08820943
5	0xbd92ffd6	-0.07177703
6	0x3dbd016c	0.09228787
7	0x3d6e3922	0.058159955
8	0x3d0d8829	0.03455368
9	0x3d0805d8	0.033208698
10	0xbca1c6d9	-0.019748138
11	0x3d585da4	0.052823678
12	0x3db37a6a	0.08763583
13	0x3d2721ac	0.040803596
14	0x3d95c3ae	0.073127136
15	0xbd85abc2	-0.06526901
16	0xbd86f5f0	-0.065898776
17	0x3d896a3a	0.06709714
18	0x3d5b1afb	0.053492527
19	0x3dc306a3	0.0952275
20	0xbda1ed89	-0.07906634
21	0x3d12ae1d	0.03581058
22	0x3d9944ac	0.07483801
23	0xbcec6444	-0.028856404
24	0x3d619d64	0.05508174
25	0xbcc04ba1	-0.023473563
26	0xbdb80a40	-0.0898633
27	0xbd55c3d0	-0.052188694
28	0xbd0e9241	-0.034807447
29	0xbdd6a9f0	-0.10481632
30	0x3d604be8	0.05475989
31	0x3d783068	0.06059304
32	0xbd81193b	-0.063036405
33	0x3aa01b0b	0.0012215091
34	0xbdcf98d1	-0.10136569
35	0x3dce9c19	0.10088367
36	0xbcd77a48	-0.026303425
37	0xbd6e89e1	-0.05823696
38	0x3d6dcb00	0.058054924
39	0xbd79c1da	-0.060975887
40	0xbdae4838	-0.085098684
41	0xbd2982d0	-0.04138452
42	0xbdcd7cf4	-0.100335985
43	0xbd51be74	-0.05120702
44	0xbd384bc8	-0.044994146
45	0x3d344387	0.04400971
46	0x3d318189	0.043336425
47	0xbd13c7b4	-0.036079124
48	0xbd06f8d3	-0.03295214
49	0xbd6418cf	-0.05568772
50	0x3ce955ff	0.028483389
51	0x3dc40cb1	0.09572733
52	0xbd9f94df	-0.07792067
53	0x3d365083	0.044510376
54	0xbd233235	-0.039842803
55	0x3db50012	0.08837904
56	0x3d1a1629	0.03761879
57	0x3dad1d3b	0.08452841
58	0xbd48e7b0	-0.04904908
59	0x3d69d20e	0.05708509
60	0xbcdb1f8a	-0.026748437
61	0x3d57064d	0.052496243
62	0x3db084ee	0.08619104
63	0xbac4cb7d	-0.0015014258
64	0xbda3e504	-0.08002666
65	0xbd3d9a37	-0.04628965
66	0xbb041733	-0.002015543
67	0xbd1fcbb6	-0.039012633
68	0x3c103f67	0.008804179
69	0x3d29418a	0.04132227
70	0xbd62b368	-0.055346876
71	0x3d3c0c0b	0.045909923
72	0x3d67ffcf	0.056640442
73	0x3d585629	0.052816544
74	0xbdb092f3	-0.08621778
75	0xbd6e38fd	-0.058159817
76	0xbd5c1607	-0.053731944
77	0xbd6e1912	-0.058129378
78	0xbd0717ef	-0.03298181
79	0xbd8ba900	-0.068193436
80	0x3d4eeee8	0.050520808
81	0x3cf35a2f	0.029706089
82	0xbd1c0cff	-0.03809833
83	0x3daab671	0.08335579
84	0x3d565a88	0.05233243
85	0x3d4ffb4f	0.050776776
86	0xbd0089f0	-0.031381547
87	0x3da620c8	0.08111721
88	0x3d496ecf	0.04917794
89	0x3df989f1	0.12184513
90	0xbd30be3e	-0.04315018
91	0xbd70e65b	-0.058813434
92	0xbcf0d13c	-0.029396646
93	0x3dae46bf	0.085095875
94	0x3d55a6fc	0.0521612
95	0x3ca00177	0.019531948
96	0x3cabddec	0.020979844
97	0x3d7aee77	0.061262574
98	0x3d83643a	0.06415601
99	0xbd85d4d0	-0.065347314
100	0xbdefbb4f	-0.11705648
101	0x3cba47ed	0.022739375
102	0xbd4b9ef3	-0.049712133
103	0xbda416e7	-0.08012181
104	0x3c55cfb7	0.013050011
105	0x3d7e36ef	0.062064108
106	0xbdcd339d	-0.1001961
107	0x3dc313fc	0.09525296
108	0xbd04a10e	-0.032380156
109	0xbd9b514f	-0.07583868
110	0xbd59d286	-0.053179286
111	0x3d31d27f	0.043413635
112	0x3ccafaab	0.02477773
113	0xbd3cdbe6	-0.04610815
114	0x3d758590	0.05994183
115	0x3d8c8be0	0.068626165
116	0x3cff8622	0.03119189
117	0xbd9a0982	-0.07521345
118	0x3d5ff798	0.054679483
119	0xbd163f34	-0.03668137
120	0x3dc4f9fb	0.096179925
121	0xbc5c1047	-0.013431615
122	0x3d04f4e4	0.03246011
123	0xbd5c2e4d	-0.053755093
124	0xbd750251	-0.059816662
125	0xbcf5a9fa	-0.029988278
126	0x3d9be853	0.07612672
127	0xbd5988db	-0.05310903
128	0xbd88a1d1	-0.06671489
129	0xbd4854ce	-0.048909
130	0xbdd5f034	-0.10446206
131	0xbbcb6932	-0.0062076086
132	0x3d9e2564	0.077219754
133	0x3d45b0cd	0.048264313
134	0xbda5ead8	-0.081014335
135	0x3cee5432	0.029092882
136	0x3d8d1915	0.0688955
137	0x3d6716c1	0.056418184
138	0xbd8bc1fb	-0.06824108
139	0x3d2f99c2	0.042871244
140	0xbd2d870f	-0.04236513
141	0x3d9f836b	0.07788738
142	0xbcee71ac	-0.029106937
143	0x3d92903b	0.07156416
144	0x3dd89b6f	0.105765216
145	0x3dc4398d	0.095812894
146	0x3d26aed0	0.040694058
147	0x3d179557	0.037007656
148	0x3d564053	0.052307438
149	0xbd0b5adb	-0.034022193
150	0xbb42358d	-0.002963397
151	0xbd6a7ab9	-0.057245944
152	0xbcae9a5e	-0.021313842
153	0x3db04c81	0.08608342
154	0xbd1c4dc6	-0.038160108
155	0x3d309279	0.043108437
156	0xbd08ac38	-0.033367366
157	0xbd649082	-0.055801876
158	0xbdc8e883	-0.09809973
159	0xbd444c09	-0.047924075
160	0x3da1b871	0.078965075
161	0xbd9ee8fd	-0.07759283
162	0xbd66d5ae	-0.056356125
163	0xbd4be7a3	-0.049781453
164	0xbcee2aa2	-0.029073063
165	0x3d3e9b7a	0.046534993
166	0x3d348714	0.044074133
167	0xbd08c127	-0.03338733
168	0xbd85dc0a	-0.0653611
169	0xbce87498	-0.028375909
170	0x3d4680b2	0.048462577
171	0xbdc77cf9	-0.097406335
172	0xbd134a98	-0.03595981
173	0x3d96a650	0.0735594
174	0xbd5845c0	-0.052800894
175	0x3de62d0b	0.1123906
176	0x3cead506	0.02866603
177	0x3d581c02	0.052761085
178	0x3d81c8db	0.06337138
179	0x3d718af8	0.05897042
180	0xbd89b150	-0.06723273
181	0xbd300133	-0.042969894
182	0x3d522905	0.05130865
183	0x3dc2ecd4	0.09517828
184	0x3c31ebd3	0.0108594475
185	0xbd2e6941	-0.042580847
186	0x3da02980	0.078204155
187	0x3d7a135d	0.061053623
188	0xbd466149	-0.048432622
189	0x3d3921af	0.04519814
190	0x3c97b00e	0.018516567
191	0x3d2fc34e	0.042910866
192	0x3cd8a2a9	0.02644475
193	0x3d26349b	0.040577512
194	0x3d8f8092	0.07006945
195	0xbd5d88e1	-0.054085616
196	0xbdba25a1	-0.090892084
197	0x3d935177	0.071932726
198	0x3d94b3a7	0.072608285
199	0x3d7432d1	0.059618775
200	0xbd85e03a	-0.065369084
201	0xbd1c0bbb	-0.038097125
202	0x3d0ac8ec	0.03388302
203	0xbdb2621d	-0.0871012
204	0x3da507d5	0.080581345
205	0xbc7964d3	-0.015221792
206	0xbd559d70	-0.052152097
207	0xbd8b8db3	-0.06814136
208	0x3d6f98d7	0.05849537
209	0xbd430548	-0.04761246
210	0x3d8bd13f	0.0682702
211	0xbd875501	-0.0660801
212	0xbcf46cdb	-0.029837063
213	0xbdc81e4c	-0.09771404
214	0x3d82b0af	0.06381356
215	0x3d7dda68	0.061975867
216	0x3db06fdb	0.08615085
217	0x3d960d4b	0.07326754
218	0xbda3dfcc	-0.0800167
219	0xbd81ab8c	-0.06331548
220	0x3d495c55	0.04916032
221	0xbd5a31df	-0.053270217
222	0xbd347779	-0.04405925
223	0xbd64d55d	-0.05586754
224	0x3c9b0f59	0.018928217
225	0x3d3e9d5d	0.046536792
226	0x3d78c2b3	0.060732555
227	0x3da0e2a5	0.07855729
228	0x3d813d78	0.06310552
229	0x3d1c1022	0.038101323
230	0xbd199dc5	-0.037503976
231	0xbd8de085	-0.06927589
232	0x3d7532fe	0.059863083
233	0xbd006023	-0.031341683
234	0xbd443662	-0.047903426
235	0xbd52dfb1	-0.05148286
236	0x3dcdfdc5	0.10058168
237	0xbcb33290	-0.021874696
238	0xbd37d7ff	-0.044883724
239	0xbcdfef01	-0.027335646
240	0x3d6eed82	0.058331974
241	0x3ceb595b	0.028729131
242	0x3d9bfce4	0.076165944
243	0xbd18c83d	-0.037300337
244	0xbd1a14cc	-0.03761749
245	0xbdbd8bc3	-0.09255173
246	0xbdd54585	-0.104136504
247	0xbd577e03	-0.05261041
248	0xbd729632	-0.05922527
249	0x3db8c564	0.09022024
250	0x3c591051	0.013248519
251	0xbdfbc368	-0.1229313
252	0x3d5e80cd	0.054322053
253	0x3ba45048	0.005014453
254	0xbdb24c31	-0.087059386
255	0xbd9792c1	-0.07401038

fc3.bias f4 [2]
0	0x3ded0061	0.11572338
1	0xbe2d1f41	-0.16906454
