avaxtar/model_pytorch1.pt (torch, 905221 bytes, 6 tensors)

fc1.weight f4 [300, 600]
0.0405223 -0.06087388 -0.014796403 -0.1940434 -0.018958148 -0.17253074 -0.015516588 -0.18409391
-0.21401022 -0.024802776 0.1055992 0.14148077 -0.09724103 -0.24131835 0.13875741 0.24693516
0.15669708 0.1328109 -0.1020612 0.09106595 0.24935423 0.0066642966 0.06595448 -0.02648856
0.01501253 -0.14677341 -0.0144551685 0.0969629 0.10215918 0.09588668 0.028346168 0.10136188
-0.32507586 -0.16443066 -0.064808436 -0.17779021 0.077300005 0.0019816607 0.04969511 -0.32508448
-0.05114159 0.23852697 0.094685085 -0.061882056 0.21758212 0.18770257 0.17783612 0.1581725
-0.03327428 -0.022216158 0.034974724 -0.010636942 0.07780898 -0.017468935 0.015164869 0.011770831
-0.06197923 0.0027002152 0.1745557 -0.00047681076 0.12016486 -0.14624909 -0.21785513 0.022056134
0.13828179 0.118245155 -0.20649165 -0.08267371 -0.044424944 -0.048894115 0.07067995 0.08608222
0.030648656 0.04713494 -0.12060707 0.033831645 0.14798439 -0.3484013 0.10850287 -0.060542498
-0.17097124 0.009755152 -0.047589887 -0.06159238 0.113099344 -0.1045764 -0.029170815 0.105673365
0.19605218 -0.03706304 0.1240265 -0.16604275 -0.035302356 0.0748533 -0.27739757 -0.088158816
0.018034283 0.08133018 -0.032105472 -0.14272565 -0.21197085 -0.117564596 0.03496348 -0.009448542
0.023995 -0.12028606 0.06680136 -0.15969592 -0.11950894 -0.100683965 -0.15481849 -0.10509455
0.17434062 -0.044336315 0.20840642 0.1160089 -0.10035722 -0.06342923 -0.09300015 -0.04871201
-0.061415352 0.013325805 -0.13784821 0.15209 0.08564679 0.024052283 -0.08565564 0.14490646
0.008194942 0.07019325 -0.2403406 0.08676688 -0.0782226 -0.073579274 -0.056005154 -0.1125378
0.28547174 0.17985782 -0.195784 -0.017118786 0.05031202 -0.10886023 -0.09808111 0.18985076
0.03979585 0.13614145 -0.006913928 0.3440368 -0.051243182 0.04166653 0.124811046 0.0269337
0.16877168 0.21989268 0.14061764 -0.06215371 0.16451935 -0.3280822 -0.05231686 0.035692237
-0.08453839 0.3786702 0.076209776 -0.17720911 -0.22116345 0.07210564 0.06655883 -0.12908484
0.20028567 -0.20583764 -0.16977462 -0.14154504 0.106897704 0.018951958 0.08189559 0.15127748
-0.094646655 0.11929418 0.12596536 0.07049259 0.011978544 -0.020451382 -0.026593765 -0.025301227
0.029238941 -0.023673138 0.050840653 0.07090686 -0.11711618 0.06415876 -0.004312009 -0.103472516
0.12860367 -0.10813141 -0.042168107 0.16936164 -0.024984071 0.028777326 0.05731552 0.08877108
0.093708254 0.09140683 -0.1336995 0.07048479 -0.1344652 0.04242757 0.005850488 0.32866925
0.10155896 0.092200406 0.13496187 0.07618906 -0.005724196 -0.018863171 -0.060662374 -0.22361024
0.04972555 0.10573099 -0.11510049 -0.1456929 0.06395273 -0.1264317 -0.070136465 0.093977205
0.031749614 -0.16056024 0.047683213 0.04411222 0.2090799 -0.17531362 -0.054369856 -0.016322898
-0.07509027 -0.06866593 -0.19388936 -0.027304541 -0.019886317 -0.1443297 0.06657778 0.05927636
-0.23586832 -0.16930588 0.0027690176 -0.1034334 0.10083589 -0.096731134 -0.1539724 -0.04229271
0.030236678 0.17890278 0.13456061 -0.12168208 0.056740306 -0.22156556 -0.2584073 0.03743843
00000000: b6fa 253d e456 79bd 9d6c 72bc 50b3 46be
00000010: 1e4e 9bbc e6ab 30be 4a39 7ebc 1d83 3cbe
00000020: 7f25 5bbe 312f cbbc 6544 d83d 56e0 103e
00000030: 4e26 c7bd 281c 77be 6c16 0e3e 92dc 7c3e
00000040: 3375 203e 95ff 073e 7605 d1bd c980 ba3d
00000050: b756 7f3e 2c60 da3b 2413 873d 89fe d8bc
00000060: 1df7 753c c54b 16be 5fd5 6cbc 7c94 c63d
00000070: d538 d13d 3c60 c43d 3936 e83c d196 cf3d
00000080: 5870 a6be 8360 28be 49ba 84bd a30e 36be
00000090: 774f 9e3d c0de 013b 1a8d 4b3d 7971 a6be
000000a0: d879 51bd 6a40 743e 41ea c13d 0a78 7dbd
000000b0: d9cd 5e3e 1a35 403e ac1a 363e f9f7 213e
000000c0: 9d4a 08bd a9fe b5bc a841 0f3d 9246 2ebc
000000d0: 515a 9f3d 031b 8fbc 1276 783c 72da 403c
000000e0: efdd 7dbd 18f6 303b bbbe 323e 75fc f9b9
000000f0: fe18 f63d 52c2 15be 6a15 5fbe 11af b43c
00000100: be99 0d3e 842a f23d 8c72 53be d650 a9bd
00000110: eef6 35bd 3245 48bd a6c0 903d e04b b03d
00000120: e412 fb3c 9110 413d d700 f7bd 0d93 0a3d
00000130: 3889 173e a861 b2be c136 de3d 69fb 77bd
00000140: 1613 2fbe 13d4 1f3c 9ded 42bd 4b48 7cbd
00000150: a1a0 e73d 272c d6bd a2f7 eebc 476b d83d
00000160: e7c1 483e 6acf 17bd 9b01 fe3d 1c07 2abe
00000170: 3499 10bd b04c 993d 0e07 8ebe 9c8c b4bd
00000180: a2bc 933c 7090 a63d 0781 03bd ac26 12be
00000190: e30e 59be b5c5 f0bd de35 0f3d 0fce 1abc
000001a0: 2a91 c43c 8a58 f6bd 27cf 883d 5487 23be
000001b0: 1ac1 f4bd 6533 cebd bd88 1ebe d03b d7bd
000001c0: 5986 323e ff99 35bd 7e68 553e 1396 ed3d
000001d0: 1688 cdbd 2fe7 81bd dd76 bebd 3f86 47bd
000001e0: aa8e 7bbd 7a54 5a3c 1528 0dbe 7bbd 1b3e
000001f0: 9667 af3d 4b09 c53c 396c afbd 5c62 143e
00000200: 1444 063c 7bc1 8f3d d91b 76be d5b2 b13d
00000210: 2c33 a0bd bbb0 96bd a965 65bd 387a e6bd
00000220: 5a29 923e a62c 383e 9a7b 48be b23c 8cbc
00000230: fa13 4e3d 1df2 debd c0de c8bd 3d68 423e
00000240: f900 233d aa68 0b3e 3b8e e2bb 9725 b03e
00000250: 5fe4 51bd 86aa 2a3d ef9c ff3d 10a4 dc3c
00000260: 7cd2 2c3e 8c2b 613e 12fe 0f3e e394 7ebd
00000270: c377 283e 64fa a7be 344a 56bd 0632 123d
00000280: 7722 adbd 0fe1 c13e df13 9c3d 4e76 35be
00000290: ac78 62be 1fac 933d ff4f 883d d12e 04be
000002a0: b017 4d3e 1ac7 52be 66d9 2dbe 2ff1 10be
000002b0: 2fed da3d 2341 9b3c e0b8 a73d 7ce8 1a3e
000002c0: 1bd6 c1bd 8250 f43d 10fd 003e 6b5e 903d
000002d0: a841 443c a889 a7bc 2bdb d9bc 8544 cfbc
000002e0: 8186 ef3c 2bee c1bc 4a3e 503d 9e37 913d
000002f0: 9cda efbd ab65 833d c14b 8dbb 66e9 d3bd
00000300: aeb0 033e 0074 ddbd 77b8 2cbd 236d 2d3e
00000310: 65ab ccbc 6dbe eb3c aec3 6a3d 9dcd b53d
00000320: 1dea bf3d 8133 bb3d 86e8 08be 545a 903d
00000330: 3fb1 09be 88c8 2d3d 73b5 bf3b 5647 a83e
00000340: 25fe cf3d 91d3 bc3d 7233 0a3e 0309 9c3d
00000350: 0992 bbbb f086 9abc 1c79 78bd 15fa 64be
00000360: 05ad 4b3d 7d89 d83d ceb9 ebbd 8530 15be
00000370: a6f9 823d 5077 01be b5a3 8fbd 1f77 c03d
00000380: e20b 023d e769 24be 794f 433d 04af 343d
00000390: 0b19 563e 6a85 33be edb2 5ebd 99b7 85bc
000003a0: edc8 99bd b9a0 8cbd ef8a 46be c6ad dfbc
000003b0: a1e8 a2bc 2acb 13be ee59 883d c5cb 723d
000003c0: 7787 71be 855e 2dbe 6878 353b e4d4 d3bd
000003d0: 0c83 ce3d f91a c6bd f1aa 1dbe 1f3b 2dbd
000003e0: e9b2 f73c 4a32 373e 42ca 093e 7434 f9bd
000003f0: 8668 683d 15e2 62be f64d 84be 0a59 193d

fc1.bias f4 [300]
-0.13004658 -0.26222736 0.12206104 -0.087333106 0.077300146 -0.29207027 -0.17813814 0.19067279
0.19721062 0.12689747 -0.23779294 0.050988268 -0.16166064 0.021003902 0.06445448 0.08435896
-0.1076991 -0.027422458 0.39889133 -0.23655479 0.11510099 -0.078863904 0.12719673 -0.09916219
0.31128746 -0.21511745 0.12533979 0.00362492 -0.0064841597 0.052278396 0.03594986 -0.03612746
-0.16720977 0.020514473 0.019033166 -0.18079855 0.01728326 -0.12478417 0.12545666 0.06774992
-0.016148292 -0.14261287 -0.14338419 -0.16585764 -0.38537297 -0.29027674 0.4702265 0.26513624
-0.19887994 -0.11259542 -0.20901674 -0.12002006 -0.086739525 -0.12516965 -0.22983451 0.17219537
-0.11678627 -0.22105835 0.019255998 0.121846214 -0.18916577 -0.009077962 0.09087922 0.22083841
0.44345534 -0.25591335 -0.057518523 -0.01108288 0.123499334 0.00932523 -0.3434031 0.14729938
0.485839 -0.12056423 0.24664697 -0.31061307 -0.0031903274 -0.03446478 0.026413796 -0.088990904
0.22035846 0.022348335 0.03487199 -0.061156813 0.1420864 0.00021748959 0.0071007824 -0.06278477
-0.23311706 0.3028939 0.28801507 0.34944874 -0.023301072 -0.052715704 0.04267741 -0.009283766
-0.049215622 -0.120074935 -0.20022798 0.009068948 0.3759287 -0.12441149 0.11304277 0.044845082
0.0794039 -0.1367962 0.060541376 -0.3600033 -0.13279843 -0.5063224 -0.13337822 0.14883219
0.080469854 -0.11916875 0.053156152 -0.028486459 -0.01622907 0.22670005 -0.12201973 0.06424867
-0.1168857 -0.13850811 -0.013440516 -0.08025293 0.21546076 0.19149062 -0.3482131 0.090991184
0.21360274 -0.103817225 -0.3720413 -0.08758508 -0.104985766 0.07674145 -0.018011047 0.09772529
0.3366566 -0.086808994 -0.0007964596 -0.19117658 -0.13239172 0.15934387 0.25381798 -0.13873912
-0.41557422 -0.31295085 0.29831734 -0.036550406 0.024309918 -0.16320588 0.14171784 -0.0324891
-0.031264223 0.10326635 0.24263977 0.30171305 0.087024674 -0.1849787 0.12588763 -0.048544522
-0.11500859 0.005371911 -0.14572728 -0.013546557 -0.06064384 0.13680851 -0.047376398 -0.08267724
-0.06119675 -0.48127967 0.030559648 0.037283067 0.2278246 -0.17202182 0.40997568 -0.20849773
-0.107397735 0.22178845 -0.25349396 -0.08887668 0.12538692 0.31166223 -0.14941487 0.10867347
0.05449051 0.16215216 -0.02888895 -0.1890252 0.03176824 0.16300634 0.24945372 0.5053724
-0.10370045 0.29423812 -0.052229717 0.13622896 0.06987919 -0.2823535 -0.2851857 0.004896612
-0.062461503 -0.074069336 -0.16337803 -0.120209865 -0.15567456 0.202388 -0.114387944 -0.344174
-0.05924103 0.06414712 -0.013913062 -0.23923145 -0.12714668 0.16566634 -0.32672176 -0.04021688
0.19465081 -0.0058189533 -0.24373917 0.041703798 -0.104761764 0.0021799055 -0.3685492 -0.32055262
0.34279653 -0.19874793 0.09096805 -0.024985686 0.015157012 0.022205202 -0.24926603 -0.3463375
0.1358899 0.13474983 -0.04779447 -0.1515349 0.063966654 -0.057547383 0.18844517 -0.26237574
-0.08736126 -0.41258073 0.19500956 0.07847397 0.20356992 0.2844934 -0.19568783 -0.17324379
0.20640148 0.103451006 0.26588103 0.40950906 -0.014218933 0.11001919 0.087789476 -0.39092657
00000000: ee2a 05be aa42 86be 23fb f93d b3db b2bd
00000010: 8a4f 9e3d 3c8a 95be d869 36be ba3f 433e
00000020: 95f1 493e 69f1 013e fe7f 73be 13d9 503d
00000030: 5e8a 25be 6010 ac3c b600 843d 64c4 ac3d
00000040: 5991 dcbd 10a5 e0bc 7c3b cc3e 6b3b 72be
00000050: 11ba eb3d 6683 a1bd dc3f 023e 8c15 cbbd
00000060: 1261 9f3e c047 5cbe 1359 003e 1190 6d3b
00000070: 1379 d4bb df21 563d 2940 133d 63fa 13bd
00000080: 0a39 2bbe f80d a83c 71eb 9b3c 4123 39be
00000090: a095 8d3c d88e ffbd b677 003e 78c0 8a3d
000000a0: 6c49 84bc 1c09 12be 4ed3 12be 96d6 29be
000000b0: 9b4f c5be 279f 94be 87c1 f03e f0bf 873e
000000c0: 2fa7 4bbe 6d98 e6bd 7c08 56be 14cd f5bd
000000d0: 7ea4 b1bd 792c 00be bd59 6bbe fc53 303e
000000e0: a42d efbd 1f5d 62be c1be 9d3c 828a f93d
000000f0: acb4 41be bbbb 14bc e21e ba3d 7723 623e
00000100: 940c e33e 1307 83be 8b98 6bbd f894 35bc
00000110: 38ed fc3d d9c8 183c 88d2 afbe a6d5 163e
00000120: e4bf f83e 61ea f6bd 0691 7c3e ad08 9fbe
00000130: d014 51bb f12a 0dbd bf61 d83c dd40 b6bd
00000140: a6a5 613e db13 b73c efd5 0e3d 917f 7abd
00000150: 197f 113e eb0d 6439 aead e83b 4d95 80bd
00000160: 3db6 6ebe e914 9b3e b676 933e f2ea b23e
00000170: e4e1 bebc 6cec 57bd 82ce 2e3d f01a 18bc
00000180: 5296 49bd d9e9 f5bd 9008 4dbe ed95 143c
00000190: ba79 c03e 74cb febd f882 e73d 7aaf 373d
000001a0: 839e a23d 4e14 0cbe 3cfa 773d 5a52 b8be
000001b0: 50fc 07be 589e 01bf 4d94 08be 7767 183e
000001c0: 61cd a43d bf0e f4bd 44ba 593d 6f5c e9bc
000001d0: d4f2 84bc 0f24 683e 7be5 f9bd cf94 833d
000001e0: c561 efbd 12d5 0dbe 9c35 5cbc a65b a4bd
000001f0: bfa1 5c3e 1e16 443e fd48 b2be 9659 ba3d
00000200: adba 5a3e 209e d4bd 337c bebe ce5f b3bd
00000210: c702 d7bd 9f2a 9d3d e78b 93bc 3224 c83d
00000220: 415e ac3e eac8 b1bd 80c9 50ba cbc3 43be
00000230: b291 07be 0a2b 233e 6ef4 813e a111 0ebe
00000240: 25c6 d4be 183b a0be 0dbd 983e e1b5 15bd
00000250: 9825 c73c 711f 27be 7b1e 113e 4a13 05bd
00000260: ea0e 00bd 4f7d d33d 8f76 783e 227a 9a3e
00000270: fe39 b23d 0e6b 3dbe b0e8 003e 9fd6 46bd
00000280: a089 ebbd db06 b03b 8839 15be 61f2 5dbc
00000290: ad65 78bd 8817 0c3e c10d 42bd af52 a9bd
000002a0: 71a9 7abd 4a6a f6be 3a58 fa3c 21b6 183d
000002b0: da4a 693e 7d26 30be 55e8 d13e 6e80 55be
000002c0: 58f3 dbbd 831c 633e f6c9 81be fa04 b6bd
000002d0: 6e65 003e 3192 9f3e 3600 19be 3290 de3d
000002e0: 7131 5f3d 370b 263e 85a8 ecbc d28f 41be
000002f0: 6a1f 023d 22eb 263e cc70 7f3e 1660 013f
00000300: e760 d4bd 61a6 963e d4ee 55bd 9b7f 0b3e
00000310: d21c 8f3d a390 90be dc03 92be c273 a03b
00000320: a2d7 7fbd aab1 97bd 924c 27be 9730 f6bd
00000330: 2769 1fbe cd3e 4f3e 3a44 eabd 9337 b0be
00000340: b9a6 72bd 915f 833d 9df3 63bc 17f9 74be
00000350: bd32 02be 70a4 293e 1348 a7be 75ba 24bd
00000360: 8b52 473e ebac bebb c396 79be 9ad1 2a3d
00000370: 568d d6bd bfdc 0e3b 7bb2 bcbe 791f a4be
00000380: 0783 af3e 9484 4bbe 754d ba3d c8ae ccbc
00000390: 1e55 783c afe7 b53c 983f 7fbe 2653 b1be
000003a0: b926 0b3e dcfb 093e 22c4 43bd f72b 1bbe
000003b0: f300 833d ceb6 6bbd c5f7 403e 1d56 86be
000003c0: 76ea b2bd c83d d3be 96b0 473e f6b6 a03d
000003d0: a274 503e 1ea9 913e 6462 48be d266 31be
000003e0: e95a 533e 1fde d33d 8f21 883e 2cab d13e
000003f0: 87f6 68bc be51 e13d f8ca b33d 8727 c8be

fc2.weight f4 [150, 300]
0.116541766 0.18335457 -1.0820498 0.2610409 -0.4951485 0.02060925 -0.05940462 -0.0018655066
-0.17902388 0.025184032 0.106784046 0.035334628 -0.013199115 0.0749701 -0.04283691 0.045667842
-0.0011439536 -0.023582583 -0.10273918 0.027785216 -0.056598 0.18154432 -0.20366722 -0.027674688
-0.18651982 -0.0046887244 -0.03025523 -0.0194101 -0.21734355 -0.012624832 0.07825273 0.107546836
-0.11431653 0.032609545 0.046285268 0.12837039 -0.060029723 -0.23064487 0.09859304 0.08719812
-0.07090419 -0.1101074 -0.06885156 -0.11396269 -0.02340329 0.1401375 -0.031549487 -0.044845674
0.0543147 -0.016159222 0.18407287 -0.0045426474 -0.01584067 0.122422814 -0.07142583 -0.098777935
0.27371415 -0.015582861 0.17138356 -0.08680089 -0.20904386 -0.29178974 0.13691425 -0.33420858
0.06502939 1.207983 0.3388768 -0.14904371 -0.16758835 -0.079211794 -0.017729558 -0.11486754
0.05201927 0.1807007 0.0017102042 0.1269615 -0.16473216 0.47682592 0.035387278 -0.006108578
-0.120556265 -0.015173425 -0.007901458 0.15362516 -0.09088489 0.094660126 -0.17627172 0.08098772
0.051021054 0.090085685 0.03391556 0.15399446 0.14368178 0.039666314 0.1759187 0.0054180124
0.014647682 0.13501307 0.11566004 -0.11332559 -1.1486845 0.028624961 0.1384041 -0.083408274
-0.2662774 -0.072461426 -0.25059983 0.098495275 -0.008216051 -0.006616916 0.16086732 0.08237185
-0.18014672 0.1824462 0.12369802 -0.08139764 0.11452083 -0.018137816 -0.019085264 0.032467052
0.030446544 0.049765706 -0.1547353 -0.1798355 -0.045524888 0.045852628 0.0009572905 -0.080766045
0.06986461 0.07970395 -0.004084644 0.036314346 -0.15325971 -0.29380742 0.0419892 -0.008730796
0.08286759 -0.04413244 0.19674006 -0.1935808 -0.12287099 0.03528855 0.020091614 0.019390132
-0.18655157 0.031604078 0.032866675 0.2649606 -0.054216813 -0.13684699 0.087542444 0.039390273
-0.03398283 -0.086957216 0.008824316 0.004379676 -0.14924298 0.105283275 -0.098233484 -0.06673073
0.0026391374 -0.11284448 0.048419517 -0.17185949 0.07395377 0.07665635 -0.020850154 -0.13371073
0.034509957 -0.110694855 -0.2440478 0.03475129 0.05123931 0.16174692 -0.07842075 0.08597975
0.093571395 -0.27108032 0.040326275 0.07280597 0.023012156 -0.07022498 -0.10243969 -0.2554244
-0.17129743 -0.24093118 -0.2494814 -0.0058756974 0.113026924 -0.09542089 0.003286582 -0.0018198959
0.048713565 -0.005464041 0.12917466 -0.5126067 -0.18782173 -0.07393369 0.16955686 0.07772736
0.013310737 0.22074279 0.06535176 0.011318504 0.1200312 0.09325195 -0.010989594 -0.019357076
-0.07564588 -0.025023354 -0.117959574 -0.07059081 0.22663991 -0.04684096 0.03593564 -0.095316015
-0.11439396 -0.0067873537 0.091776386 0.10150101 -0.068535216 -0.0855708 0.036210485 0.044660434
-0.0053844303 0.03327979 0.08578102 -0.25562426 -0.119729705 0.017850626 -0.04450785 0.06712017
0.03824468 -0.0704561 -0.18204094 -0.16299048 -0.1233537 0.4642765 -0.10498223 0.07484154
0.044722788 0.027708521 -0.040000897 -0.28055146 -0.30102298 0.059710518 -0.13931614 0.044747807
-0.05998778 -0.058734484 0.08613146 0.033741504 -0.09838645 -0.06320055 -0.35101128 -0.06512913
00000000: 73ad ee3d 4dc1 3b3e 9c80 8abf 27a7 853e
00000010: 1b84 fdbe bbd4 a83c 4252 73bd 0484 f4ba
00000020: 0952 37be be4e ce3c 98b1 da3d 0bbb 103d
00000030: 1a41 58bc ec89 993d c175 2fbd 340e 3b3d
00000040: b7f0 95ba 4330 c1bc eb68 d2bd d29d e33c
00000050: 4ed3 67bd c1e6 393e 248e 50be 07b6 e2bc
00000060: 0dff 3ebe dfa3 99bb d1d9 f7bc ee01 9fbc
00000070: 4f8f 5ebe 62d8 4ebc f842 a03d 8441 dc3d
00000080: c91e eabd 9691 053d 9f95 3d3d 8773 033e
00000090: bae1 75bd 2b2e 6cbe 26eb c93d ee94 b23d
000000a0: 3736 91bd fd7f e1bd 0c02 8dbd 4565 e9bd
000000b0: 42b8 bfbc 3480 0f3e 093a 01bd 19b0 37bd
000000c0: 1779 5e3d 5860 84bc 997d 3c3e 7dda 94bb
000000d0: 4bc4 81bc d0b8 fa3d b547 92bd 164c cabd
000000e0: 4324 8c3e 424f 7fbc 2c7f 2f3e aac4 b1bd
000000f0: 980f 56be 7765 95be 4033 0c3e 631d abbe
00000100: 212e 853d 309f 9a3f 4381 ad3e ea9e 18be
00000110: 489c 2bbe cb39 a2bd 943d 91bc ac3f ebbd
00000120: 2812 553d 9b09 393e ee28 e03a 3202 023e
00000130: 8caf 28be 8722 f43e 40f2 103d 772a c8bb
00000140: 34e6 f6bd f599 78bc 1e75 01bc ea4f 1d3e
00000150: db21 babd 2bdd c13d 9380 34be e4dc a53d
00000160: 74fb 503d d87e b83d 0beb 0a3d b9b0 1d3e
00000170: 5121 133e 2579 223d 0824 343e 9589 b13b
00000180: d5fc 6f3c de40 0a3e 2cdf ec3d 3f17 e8bd
00000190: 1808 93bf e57e ea3c ceb9 0d3e f5d1 aabd
000001a0: 8355 88be a866 94bd 9f4e 80be e4b7 c93d
000001b0: 9e9c 06bc b7d2 d8bb 67ba 243e 93b2 a83d
000001c0: 6278 38be 2dd3 3a3e 6355 fd3d ceb3 a6bd
000001d0: e689 ea3d c295 94bc b358 9cbc 2cfc 043d
000001e0: 086b f93c 20d7 4b3d ee72 1ebe cc26 38be
000001f0: 4e78 3abd f7cf 3b3d aef2 7a3a ab68 a5bd
00000200: 2d15 8f3d d33b a33d 7ad8 85bb 5abe 143d
00000210: 1df0 1cbe ed6d 96be defc 2b3d 9d0b 0fbc
00000220: 7cb6 a93d 38c4 34bd 3a76 493e 0c3a 46be
00000230: c9a3 fbbd ba8a 103d 2b97 a43c 0ed8 9e3c
00000240: 6007 3fbe 4773 013d 359f 063d eaa8 873e
00000250: 7312 5ebd 9e21 0cbe 7449 b33d b257 213d
00000260: 9431 0bbd a016 b2bd dd93 103c 6383 8f3b
00000270: 27d3 18be c29e d73d a32e c9bd 1faa 88bd
00000280: 61f5 2c3b 021b e7bd 8b53 463d effb 2fbe
00000290: 1375 973d 01fe 9c3d f1cd aabc 77eb 08be
000002a0: 505a 0d3d fcb3 e2bd abe7 79be 5e57 0e3d
000002b0: 50e0 513d fca0 253e 0f9b a0bd 2716 b03d
000002c0: 5ca2 bf3d 0acb 8abe 2a2d 253d 4c1b 953d
000002d0: fd83 bc3c 1dd2 8fbd e6cb d1bd fdc6 82be
000002e0: 9868 2fbe aab6 76be 0d78 7fbe ec88 c0bb
000002f0: a97a e73d 076c c3bd b263 573b 9389 eeba
00000300: e087 473d b30b b3bb 5d46 043e 313a 03bf
00000310: 5754 40be 8c6a 97bd 50a0 2d3e 862f 9f3d
00000320: 4715 5a3c 660a 623e 25d7 853d 3f71 393c
00000330: ebd2 f53d e1fa be3d b30d 34bc bb92 9ebc
00000340: 3aec 9abd c7fd ccbc ca94 f1bd ea91 90bd
00000350: 4b14 683e 4edc 3fbd 4031 133d 0b35 c3bd
00000360: 6147 eabd 7368 debb 42f5 bb3d c3df cf3d
00000370: 315c 8cbd be3f afbd 7251 143d dced 363d
00000380: e06f b0bb 6450 083d f6ad af3d 2fe1 82be
00000390: d934 f5bd 7a3b 923c dd4d 36bd 4d76 893d
000003a0: 74a6 1c3d 4a4b 90bd f168 3abe fae6 26be
000003b0: dda0 fcbd a6b5 ed3e ec00 d7bd 8546 993d
000003c0: 3e2f 373d fbfc e23c fbd7 23bd 71a4 8fbe
000003d0: af1f 9abe 0493 743d e4a8 0ebe 7a49 373d
000003e0: bfb5 75bd 9293 70bd b165 b03d 8834 0a3d
000003f0: d67e c9bd 4a6f 81bd c0b7 b3be 6c62 85bd

fc2.bias f4 [150]
-0.4680756 -0.36046416 0.3845385 0.0063887206 0.41919294 0.30867505 0.088495985 0.5131458
0.2622189 0.45193642 -0.65003866 0.12076059 0.4339151 0.28040868 -0.14262153 0.0010627761
-0.44372904 -0.47842845 -0.3061375 -0.071302004 -0.19169252 0.6068213 0.21376938 -0.50015247
-0.526658 0.17456284 0.18581195 -0.061970968 -0.35238498 0.6227064 0.08481452 0.24586032
-0.25381076 0.17499359 -0.29043737 0.040560663 0.08729987 -0.48126706 -0.50683725 0.055534318
-0.21022257 0.41057098 0.05159141 -0.33665624 0.048209585 -0.41298983 -0.21930939 0.50060344
-0.30528653 0.35699198 -0.3625539 -0.09791706 -0.269858 0.30036965 -0.22740379 0.43244222
0.37428343 0.026375381 -0.62212944 -0.5414593 0.50750947 -0.09243954 -0.36803368 0.32699826
0.200501 0.18030785 -0.20303258 -0.034776416 0.441564 -0.20931786 0.26060745 -0.25537798
0.022611625 0.43634012 0.3985497 0.22351354 0.015252704 0.023228085 0.14383471 -0.3420411
0.25981033 -0.4403917 -0.36141917 -0.39157146 0.3388674 -0.37561214 0.053356994 -0.23675185
-0.4750977 -0.40392247 -0.34192255 0.32869753 -0.4708336 0.2181994 -0.5584066 -0.72033614
-0.06870359 -0.3269388 0.56475043 -0.75735563 -0.36830518 0.29168224 0.06694949 0.43615237
-0.23865476 -0.40267718 0.37176874 -0.29074088 -0.47922844 0.56102896 -0.41314065 0.29378387
0.45507294 -0.3483066 -0.29017776 0.17589752 0.17685044 0.76411664 0.11907445 0.16460888
-0.2865445 0.07142628 0.22904709 -0.33542395 0.6142726 0.23334943 -0.14137428 0.36810103
-0.31971163 0.10832228 -0.3727115 -0.48355344 -0.694546 0.21063367 -0.07692405 -0.40871838
-0.27774084 -0.25157687 0.27392143 -0.34690207 -0.30934754 0.39498508 -0.16963099 -0.5082138
0.40446487 -0.4214217 0.24266429 -0.15211797 -0.053844307 -0.24113882
00000000: 9ba7 efbe c28e b8be 3be2 c43e 7958 d13b
00000010: 75a0 d63e a80a 9e3e 623d b53d 865d 033f
00000020: 8e41 863e 3664 e73e ef68 26bf 5451 f73d
00000030: 1f2a de3e ba91 8f3e 610b 12be d94c 8b3a
00000040: 7430 e3be 93f4 f4be 0ebe 9cbe c906 92bd
00000050: 0b4b 44be a458 1b3f 5ce6 5a3e fe09 00bf
00000060: 0fd3 06bf 9ac0 323e 7d45 3e3e 45d5 7dbd
00000070: ce6b b4be b069 1f3f 3cb3 ad3d cfc2 7b3e
00000080: 7cf3 81be 8531 333e 35b4 94be f022 263d
00000090: 46ca b23d a368 f6be 16c0 01bf f477 633d
000000a0: 9644 57be 5c36 d23e 8451 533d 355e acbe
000000b0: 6a77 453d 6773 d3be a492 60be 8c27 003f
000000c0: 844e 9cbe a7c7 b63e aaa0 b9be bd88 c8bd
000000d0: d42a 8abe 0dca 993e 8adc 68be 1169 dd3e
000000e0: 14a2 bf3e 2f11 d83c e043 1fbf 149d 0abf
000000f0: 24ec 013f f150 bdbd e96e bcbe 516c a73e
00000100: 2250 4d3e 9fa2 383e c6e7 4fbe b771 0ebd
00000110: ad14 e23e 6c57 56be 576e 853e e7c0 82be
00000120: 043c b93c f967 df3e b50e cc3e bce0 643e
00000130: 7ae6 793c d348 be3c 6849 133e 0320 afbe
00000140: dc05 853e 057b e1be ef0b b9be 0e7c c8be
00000150: 0780 ad3e 3c50 c0be dd8c 5a3d 146f 72be
00000160: 0140 f3be edce cebe 7910 afbe 0b4b a83e
00000170: 1a11 f1be aa6f 5f3e bcf3 0ebf f367 38bf
00000180: 78b4 8cbd 8664 a7be 7c93 103f 0fe2 41bf
00000190: 7f92 bcbe 6057 953e d01c 893d 5d4f df3e
000001a0: ea61 74be b42b cebe 7958 be3e fddb 94be
000001b0: 6e5d f5be 989f 0f3f 2c87 d3be d76a 963e
000001c0: 52ff e83e 3e55 b2be 2e92 94be 7b1e 343e
000001d0: 4818 353e 269d 433f 4edd f33d 3b8f 283e
000001e0: f6b5 92be f147 923d 528b 6a3e b0bc abbe
000001f0: f840 1d3f 27f3 6e3e 6bc4 10be bd77 bc3e
00000200: 3eb1 a3be 12d8 dd3d 0bd4 bebe 5194 f7be
00000210: c4cd 31bf 5ab0 573e 5b8a 9dbd 8943 d1be
00000220: 0c34 8ebe afce 80be 6e3f 8c3e 269d b1be
00000230: cd62 9ebe 7c3b ca3e bfb3 2dbe 4d1a 02bf
00000240: 0516 cf3e 96c4 d7be fd7c 783e d0c4 1bbe
00000250: d98b 5cbd 18ed 76be

fc3.weight f4 [2, 150]
0.019765161 0.059987042 -0.045424156 -0.065413155 0.043314017 -0.040421866 -0.03469998 -0.05003729
-0.023920365 0.07879066 0.058725867 -0.025027871 0.05746739 -0.044363193 0.052800808 -0.04037147
0.06380713 0.042635724 0.042636417 -0.083285175 0.06344927 -0.08337495 0.016830167 0.023201112
0.031049496 -0.03878884 -0.016630113 -0.04861585 -0.08204654 -0.04491255 0.04406365 -0.07708795
0.05149587 -0.02576223 0.025248254 -0.07860797 0.02497493 0.037129298 0.04633208 0.025063366
-0.047939505 -0.06171043 -0.048838686 -0.056000777 0.010685424 0.0458993 0.044508066 -0.028482446
-0.03842609 0.031631667 0.052112404 -0.050923653 -0.081190586 0.007946329 -0.055597596 0.043164503
0.06959384 -0.026046848 0.05513246 0.048951298 0.033617213 0.0735092 -0.005012108 -0.01629349
0.05334376 0.087312 0.055110734 -0.062644005 0.029612413 -0.06795648 0.043306433 -0.08649231
0.053492967 0.025828153 -0.0316864 0.061418608 -0.07644477 -0.03321824 0.047047243 0.064374715
-0.032235276 0.05928212 0.05182206 0.03711753 0.039108567 0.063755445 0.0083931815 0.05862696
0.0017252349 0.05099349 0.035852984 -0.012464211 0.08926978 -0.07252949 0.082867116 0.06545661
-0.0742927 -0.05351138 -0.05640839 0.040303387 0.02066549 -0.04060571 -0.034050614 0.014095687
0.007842084 -0.022451397 0.06962908 0.041528016 0.049210425 -0.069027044 0.012191412 -0.049137026
-0.02479801 0.018380802 0.049445517 -0.08780351 0.043515153 -0.05900569 -0.049148798 0.04785676
0.036810298 0.03227038 -0.06566836 -0.049679983 -0.05860122 -0.04137968 0.05132862 0.044096906
0.0760734 -0.061209492 -0.037162393 0.06552365 0.08548245 0.03725675 -0.052587252 0.06732878
0.069862455 0.030170076 0.07896886 -0.01641602 0.061233692 0.041047722 -0.029949035 0.080283485
-0.02182301 0.00520099 -0.04610055 0.040661797 0.01634118 -0.037376184 -0.07865666 -0.03667254
0.055703565 0.030274486 -0.04510841 0.04016183 0.06395619 0.022823066 0.06937959 -0.019713216
-0.016605312 0.07763942 -0.04084881 0.0384425 -0.04693674 0.0554315 -0.029099377 -0.07891316
-0.043260142 0.005156673 -0.0401869 -0.0008444865 -0.07588429 -0.093930535 -0.055572405 0.052729506
0.07198451 0.039903454 0.004655078 0.03212123 -0.053140223 0.013706699 -0.037222687 0.05549661
-0.058338504 0.014907949 -0.07300389 -0.0695091 -0.05366553 -0.07083613 0.039493266 0.045319367
0.048186973 0.030978845 -0.089469634 -0.061252248 -0.052904673 0.058060225 0.051751267 -0.07240255
-0.03408929 0.023993792 0.015166551 0.08191183 0.03619342 -0.04545708 -0.00958763 0.050957583
-0.015812702 -0.0368823 -0.070213795 -0.022065395 0.089064024 0.084196895 -0.029919783 0.00017987657
-0.027355338 0.037977602 -0.055413283 0.027428383 -0.04255936 0.014103624 -0.037351836 -0.060363784
0.04363034 -0.025373654 0.01944392 0.052940607 -0.033239108 -0.022761106 0.061562903 -0.03937917
-0.053544607 -0.051832456 -0.042525936 -0.038584378 -0.07691534 -0.04143153 -0.07339476 -0.06365618
-0.05917092 0.07326578 0.0066160993 0.0219343 -0.002115631 -0.007455685 0.02629753 0.035052665
0.041109927 -0.043557968 -0.056463283 0.048554856 0.056414414 -0.07856113 -0.074949645 0.06265626
00000000: 8cea a13c f9b4 753d ae0e 3abd 55f7 85bd
00000010: 0a6a 313d 6691 25bd 9121 0ebd e7f3 4cbd
00000020: a4f4 c3bc ff5c a13d 898a 703d 4007 cdbc
00000030: ed62 6b3d 2eb6 35bd a945 583d 8e5c 25bd
00000040: 50ad 823d cca2 2e3d 86a3 2e3d 6b91 aabd
00000050: b1f1 813d 7cc0 aabd 6bdf 893c 4210 be3c
00000060: 835b fe3c 0ce1 1ebd e03b 88bc 6a21 47bd
00000070: 0408 a8bd 39f6 37bd 167c 343d 4ae0 9dbd
00000080: 55ed 523d 500b d3bc 6dd5 ce3c 37fd a0bd
00000090: 3998 cc3c e414 183d b5c6 3d3d b051 cd3c
000000a0: 375c 44bd 13c4 7cbd 130b 48bd 1261 65bd
000000b0: eb11 2f3c e800 3c3d 174e 363d 0554 e9bc
000000c0: ad64 1dbd 3590 013d d173 553d 5295 50bd
000000d0: 4047 a6bd 5231 023c 4eba 63bd 43cd 303d
000000e0: 3787 8e3d 3360 d5bc 93d2 613d 2881 483d
000000f0: 34b2 093d fe8b 963d 9c3c a4bb ed79 85bc
00000100: fd7e 5a3d a2d0 b23d cbbb 613d 804b 80bd
00000110: bb95 f23c c42c 8bbd 1662 313d e122 b1bd
00000120: 711b 5b3d 9095 d33c 99c9 01bd 1492 7b3d
00000130: 138f 9cbd d90f 08bd 9cb4 403d e4d6 833d
00000140: 2309 04bd cfd1 723d 5e43 543d 8d08 183d
00000150: 4e30 203d 3792 823d 8e83 093c d322 703d
00000160: 4721 e23a 8dde 503d 94da 123d b136 4cbc
00000170: 13d3 b63d 578a 94bd 3cb6 a93d 1d0e 863d
00000180: c526 98bd c02e 5bbd 7c0c 67bd 2a15 253d
00000190: ac4a a93c 2c52 26bd a878 0bbd 99f1 663c
000001a0: 167c 003c feeb b7bc b199 8e3d 4819 2a3d
000001b0: df90 493d 0d5e 8dbd 7dbe 473c e843 49bd
000001c0: 3225 cbbc 5693 963c 6287 4a3d 54d2 b3bd
000001d0: f23c 323d f3af 71bd 4050 49bd 7305 443d
000001e0: 65c6 163d f22d 043d 227d 86bd 3d7d 4bbd
000001f0: d507 70bd bd7d 29bd f63d 523d f59e 343d
00000200: 5fcc 9b3d ceb6 7abd 9837 18bd 4331 863d
00000210: 6c11 af3d 899a 183d bb65 57bd ace3 893d
00000220: 0c14 8f3d 3c27 f73c 6dba a13d e47a 86bc
00000230: 2ed0 7a3d a821 283d ae57 f5bc ab6b a43d
00000240: 2bc6 b2bc 116d aa3b eed3 3cbd fc8c 263d
00000250: f0dd 853c c517 19bd be16 a1bd f235 16bd
00000260: 6c29 643d 3302 f83c 99c3 38bd bb80 243d
00000270: 77fb 823d 70f7 ba3c e316 8e3d 9c7d a1bc
00000280: dd07 88bc 6b01 9f3d 1551 27bd e275 1d3d
00000290: bd40 40bd 240c 633d d161 eebc 399d a1bd
000002a0: 8c31 31bd 4ff9 a83b 059b 24bd 8860 5dba
000002b0: 3969 9bbd a75e c0bd e49f 63bd e5fa 573d
000002c0: 9d6c 933d ce71 233d a089 983b 8d91 033d
000002d0: 90a9 59bd 1092 603c d176 18bd 6a50 633d
000002e0: 5bf4 6ebd 7840 743c 1083 95bd c95a 8ebd
000002f0: 63d0 5bbd 8812 91bd b1c3 213d cda0 393d
00000300: b45f 453d 59c7 fd3c db3b b7bd a3e3 7abd
00000310: 92b2 58bd 8fd0 6d3d 23f9 533d ca47 94bd
00000320: 36a1 0bbd a18e c43c 207d 783c 64c1 a73d
00000330: 8d3f 143d 3431 3abd 6f15 1dbc e6b8 503d
00000340: a489 81bc e511 17bd 40cc 8fbd 7dc2 b4bc
00000350: 3367 b63d 6c6f ac3d 551a f5bc 409d 3c39
00000360: 4d18 e0bc 678e 1b3d 0af9 62bd 7db1 e03c
00000370: b952 2ebd e312 673c 3dfe 18bd 0440 77bd
00000380: bab5 323d 69dc cfbc db48 9f3c 40d8 583d
00000390: bb25 08bd 8075 babc 6229 7c3d 0d4c 21bd
000003a0: 9751 5bbd 454e 54bd ad2f 2ebd a70a 1ebd
000003b0: ca85 9dbd 1cb4 29bd fe4f 96bd 2c5e 82bd
000003c0: 355d 72bd 5f0c 963d ddcb d83b 90af b33c
000003d0: 66a6 0abb d24e f4bb eb6d d73c 6293 0f3d
000003e0: e262 283d d769 32bd 0b46 67bd 75e1 463d
000003f0: cd12 673d a8e4 a0bd 337f 99bd ed51 803d

fc3.bias f4 [2]
0.051599372 -0.062229216
00000000: dd59 533d 10e4 7ebd
