avaxtar/model_pytorch1.pt (torch, 905217 bytes, 6 tensors)

fc1.weight f4 [300, 600]
-0.1411118 -0.05704353 -0.0713223 0.05428789 -0.024542253 0.04119847 0.07296924 0.11407992
0.041919548 -0.06564503 -0.06054253 0.10817871 0.074471615 -0.11148661 0.04899731 0.014913722
0.10584189 0.10168709 0.07909079 -0.19655296 -0.015671404 -0.054137286 -0.026507508 0.03111638
0.08595629 0.011295412 0.12572876 -0.067968264 0.060242653 -0.02502555 -0.106668815 -0.08625481
0.04005361 -0.062759146 -0.02328898 0.05442109 -0.036585923 0.012302778 0.061220013 0.21013178
0.023257554 -0.022819698 0.008681963 0.015838565 -0.015226557 -0.09419566 -0.007784579 -0.044235587
0.020678017 -0.00071652065 0.052137125 -0.17092131 -0.11261883 0.08144745 -0.093082696 -0.09347117
0.027851732 0.042637207 0.16568464 0.01026334 -0.0820993 -0.05145087 0.015611467 -0.009900054
0.06652564 -0.07813243 0.09990519 -0.040588703 -0.036133226 0.013772729 -0.088542014 0.05605993
0.12580867 -0.001007441 -0.0606301 0.1790225 -0.030641356 0.005441274 -0.034301158 -0.049295872
0.13144815 -0.1983113 -0.048834365 -0.029358286 0.037520204 -0.10047466 -0.08832044 0.14823599
0.0554065 0.13638932 -0.06349682 -0.02682137 -0.009541189 -0.028409488 0.010719562 0.0511915
-0.03585469 0.07717857 0.0049786074 -0.047811083 0.013141034 -0.043607485 0.08160064 -0.05388316
0.102943614 0.06483881 0.06558682 0.049401697 -0.045099985 -0.16197254 -0.07608505 0.022887735
0.0838022 -0.02693493 -0.113867745 0.025566902 0.046032794 -0.15210907 -0.057998005 0.08332007
-0.01132779 0.069363035 -0.073087364 -0.19620727 -0.036805343 0.10636926 0.037462242 0.28742447
0.008516935 0.09328287 -0.062185388 -0.07127169 -0.0029940722 -0.10555753 0.19961761 0.006078525
0.026499005 0.10687468 0.039544802 0.0191666 -0.06108263 -0.0842452 0.09952139 -0.07610287
0.010603759 0.029205142 0.045120776 -0.020881698 -0.09479274 0.036013704 -0.052893724 0.046256598
0.028224617 0.08153324 0.05910089 0.043487523 0.09291996 0.054342456 0.08206605 0.15936024
0.0334943 -0.06557008 -0.07071982 -0.21128766 0.18634763 0.011418879 -0.15214556 -0.1018119
0.06935779 0.11759523 -0.03836918 -0.020386491 -0.06594089 -0.04184129 -0.052644216 -0.08817667
0.11806978 0.06287841 0.054106075 -0.072374925 -0.07371387 0.07538068 -0.07625717 0.021385262
0.0059464886 -0.06517043 -0.05201016 -0.0592191 0.0067810304 0.03150993 0.0269961 -0.027374446
-0.0781191 0.09928536 -0.11097976 -0.03542954 0.14018817 -0.004447638 -0.036140125 -0.042846292
0.060800977 0.17360285 -0.06146289 -0.017832436 -0.07112824 -0.0630467 -0.03734021 0.07188312
-0.09607643 0.1340336 -0.15424924 -0.050948203 -0.113139726 0.013325088 -0.11693058 -0.049893834
0.03461185 -0.031080512 0.0034625484 0.0930021 0.10356993 0.04864884 0.056679018 0.034531925
0.046858124 0.08769993 0.086401254 -0.021843176 0.019314691 0.023847708 -0.22923206 0.10386161
-0.018229663 0.075657375 -0.010582352 -0.025218058 0.03347892 0.07255183 0.15548123 -0.08222256
0.08801193 0.089686595 0.042550355 -0.25787237 0.036000118 0.029349986 0.0043198 0.08819305
0.005970133 -0.019826595 -0.10252191 -0.089614324 -0.038812 0.044703104 0.0899661 0.029774008
00000000: 9d7f 10be 7aa6 69bd 6d11 92bd fb5c 5e3d
00000010: d60c c9bc babf 283d e670 953d bca2 e93d
00000020: d5b3 2b3d e770 86bd 72fb 77bd cd8c dd3d
00000030: 9384 983d 1753 e4bd 67b1 483d af58 743c
00000040: a2c3 d83d 5241 d03d 5afa a13d 2e45 49be
00000050: 5161 80bc 0fbf 5dbd 4626 d9bc c7e7 fe3c
00000060: da09 b03d 6410 393c 0abf 003e f232 8bbd
00000070: 00c1 763d 6202 cdbc 2e75 dabd 5da6 b0bd
00000080: 410f 243d de87 80bd 88c8 bebc a6e8 5e3d
00000090: 1fdb 15bd 9791 493c d6c1 7a3d c92c 573e
000000a0: a086 be3c 60f0 babc cb3e 0e3c e1bf 813c
000000b0: cf78 79bc a7e9 c0bd c815 ffbb 6030 35bd
000000c0: f264 a93c e3d4 3bba bd8d 553d ff05 2fbe
000000d0: b3a4 e6bd eccd a63d 24a2 bebd d06d bfbd
000000e0: 5129 e43c 5aa4 2e3d 3ca9 293e 9127 283c
000000f0: ae23 a8bd 26be 52bd 3dc7 7f3c d633 22bc
00000100: 983e 883d e503 a0bd 189b cc3d 5740 26bd
00000110: 6f00 14bd 03a7 613c 8455 b5bd 199f 653d
00000120: fdd3 003e 1c0c 84ba 4557 78bd ad51 373e
00000130: 9503 fbbc b74c b23b 5f7f 0cbd 78ea 49bd
00000140: 589a 063e 1e12 4bbe 8b06 48bd ca80 f0bc
00000150: c9ae 193d a9c5 cdbd 59e1 b4bd 2dcb 173e
00000160: edf1 623d a4a9 0b3e 9f0a 82bd 7db8 dbbc
00000170: a652 1cbc 04bb e8bc 1aa1 2f3c 2eae 513d
00000180: 5edc 12bd cc0f 9e3d 9623 a33b 8ed5 43bd
00000190: 7e4d 573c c39d 32bd 3d1e a73d 97b4 5cbd
000001a0: 1ad4 d23d 36ca 843d 6252 863d 6f59 4a3d
000001b0: c3ba 38bd 21dc 25be 7bd2 9bbd 0f7f bb3c
000001c0: 7da0 ab3d a4a6 dcbc 7e33 e9bd ae71 d13c
000001d0: e28c 3c3d 7bc2 1bbe 518f 6dbd b6a3 aa3d
000001e0: 3298 39bc 350e 8e3d d4ae 95bd 8fea 48be
000001f0: 33c1 16bd 20d8 d93d 0272 193d 4d29 933e
00000200: 9d8a 0b3c 170b bf3d 1bb6 7ebd e4f6 91bd
00000210: 3238 44bb 8c2e d8bd 8f68 4c3e 5d2e c73b
00000220: 7114 d93c 1de1 da3d bbf9 213d 4603 9d3c
00000230: c831 7abd bf88 acbd dfd1 cb3d d2db 9bbd
00000240: 64bb 2d3c 9f3f ef3c 90d0 383d 1810 abbc
00000250: b222 c2bd 1b83 133d 17a7 58bd 8f77 3d3d
00000260: 5037 e73c e6fa a63d c613 723d f91f 323d
00000270: d24c be3d 3296 5e3d 3f12 a83d 552f 233e
00000280: 5231 093d 9b49 86bd 8ed5 90bd cb5b 58be
00000290: ead1 3e3e 4016 3b3c 0ccc 1bbe c282 d0bd
000002a0: 750b 8e3d c5d5 f03d 0029 1dbd 9201 a7bc
000002b0: 040c 87bd c661 2bbd 76a1 57bd f895 b4bd
000002c0: 92ce f13d 65c6 803d 559e 5d3d 4e39 94bd
000002d0: 4cf7 96bd 3061 9a3d b82c 9cbd 2530 af3c
000002e0: c3da c23b 1378 85bd 9b08 55bd ba8f 72bd
000002f0: 6833 de3b 8e10 013d ed26 dd3c 6040 e0bc
00000300: e8fc 9fbd 1f56 cb3d 5b49 e3bd 911e 11bd
00000310: 7d8d 0f3e 7ebd 91bb ab07 14bd 987f 2fbd
00000320: 720a 793d f2c4 313e 83c0 7bbd 5415 92bc
00000330: afab 91bd a11e 81bd 0cf2 18bd 7537 933d
00000340: b8c3 c4bd 1b40 093e 83f3 1dbe 10af 50bd
00000350: cdb5 e7bd 7851 5a3c 4d79 efbd 7a5d 4cbd
00000360: 28c5 0d3d 8f9c febc eceb 623b e377 be3d
00000370: 791c d43d 0244 473d 4228 683d 5971 0d3d
00000380: 4eee 3f3d 059c b33d 24f3 b03d 76f0 b2bc
00000390: d839 9e3c 455c c33c cfbb 6abe 65b5 d43d
000003a0: 6056 95bc 41f2 9a3d 9a61 2dbc 1a96 cebc
000003b0: 3121 093d 0e96 943d 7936 1f3e 4d64 a8bd
000003c0: 993f b43d 9bad b73d 4849 2e3d d907 84be
000003d0: dc74 133d 626f f03c 1c8d 8d3b 8f9e b43d
000003e0: 1ba1 c33b 626b a2bc 02f7 d1bd b787 b7bd
000003f0: 55f9 1ebd 9a1a 373d 2640 b83d 9fe8 f33c

fc1.bias f4 [300]
0.13470992 0.039203495 0.07942109 0.296011 0.027918566 0.09049598 0.14780675 -0.1164135
-0.122440435 0.07847537 0.16229822 -0.01421783 -0.08419463 0.142893 0.06703868 0.00939418
0.12955081 0.19021168 -0.16554919 0.21449548 -0.1369319 -0.1259563 -0.16629842 -0.00299984
-0.18365689 -0.13007483 0.13366587 0.151477 -0.11418637 -0.025653658 0.1138835 0.20927261
0.23717354 -0.122734554 0.11908009 -0.34639183 -0.1462415 0.03932284 0.124290876 -0.04113128
-0.094441175 -0.14626323 0.18002449 -0.1768964 0.059193328 -0.19901057 0.06339409 -0.13045982
0.08287375 0.013039719 -0.00019471103 0.013514573 0.16740292 0.082245715 -0.0022890344 -0.2404034
-0.13520646 0.11674001 0.11039903 -0.02924355 0.08864975 0.08492537 -0.24687064 0.11007583
0.17461924 0.013513735 0.02077147 0.12863801 0.11754262 -0.05017529 0.09286519 0.03259183
0.048635554 -0.03459657 0.017306803 -0.029991299 -0.20642814 -0.14612792 -0.05417717 -0.097649656
-0.00020080117 0.081937715 -0.1627992 0.18560275 -0.14988266 -0.32942644 -0.100319155 0.027771702
0.32183918 -0.050155114 -0.17939964 -0.24784477 0.0332104 -0.116372935 0.0979137 -0.15265384
-0.21748544 0.17519136 0.03539546 0.021987103 -0.22037111 0.18003985 -0.15056042 -0.02424517
-0.12410407 -0.040383637 0.15723562 -0.052584138 -0.15796557 0.16589798 0.109476626 -0.06218579
-0.1883805 -0.07666834 -0.109571785 -0.21265808 0.06813297 -0.059479035 0.11801977 0.17041871
-0.18467042 0.11715707 -0.13835411 0.1506807 0.09336822 -0.18542203 0.092941165 0.23358244
0.043599553 0.15049876 -0.18156528 0.02949468 -0.17644727 -0.16064072 0.015992137 0.22391465
0.1559714 -0.06264265 0.27456295 0.07197996 0.35603723 0.10677386 -0.14858246 -0.10381187
-0.19585256 0.15033463 -0.03226661 0.02782873 0.24799302 -0.13401543 -0.15423529 0.22503012
0.06970163 0.15333368 0.0040895273 0.06644584 0.10910355 0.13072732 0.093092136 -0.16100097
0.08981598 0.0942592 0.1461474 -0.040400296 -0.06696524 -0.22194427 -0.080597825 -0.08953148
-0.1353459 -0.17338797 -0.18497518 -0.06915718 0.13324031 0.26913863 0.050630346 -0.09262582
-0.31558985 -0.09588298 -0.2856281 0.25373423 -0.31189856 -0.28405097 0.20539062 0.1194632
0.1453141 0.11916752 -0.10699925 0.043163046 -0.04936096 -0.13309427 -0.13337222 -0.13782611
0.24399635 0.28498217 -0.02435703 -0.062173896 -0.09418996 0.049000695 -0.29352945 0.016617242
-0.18290403 -0.15981977 -0.17816629 0.14946406 0.16544189 0.049976554 0.17864813 -0.26244336
0.15487173 0.18036272 -0.18936479 -0.030999769 0.07620154 0.11430847 0.28043842 -0.14343017
0.113396704 -0.2048082 0.06725868 0.04247771 0.19366074 0.01818918 0.07294448 0.1140836
0.31512177 0.15507124 0.17908478 -0.099898346 -0.023201987 -0.09270959 -0.11853693 -0.12608254
0.009119095 0.08629767 -0.05020735 0.17875439 0.060038965 -0.15853259 -0.016372222 0.124695495
0.05634638 -0.16069154 -0.022948302 -0.07568014 -0.016680824 -0.067598104 -0.10279175 -0.18333246
0.07925092 -0.21138763 0.14406501 0.10479527 -0.20914403 0.03883347 -0.07375736 -0.14240406
00000000: 66f1 093e d893 203d 86a7 a23d c18e 973e
00000010: 7ab5 e43c f555 b93d a75a 173e 336a eebd
00000020: 0dc2 fabd b2b7 a03d 8131 263e e7f1 68bc
00000030: 3c6e acbd 8b52 123e 934b 893d 0cea 193c
00000040: f8a8 043e dac6 423e ba85 29be b4a4 5b3e
00000050: e037 0cbe b0fa 00be 224a 2abe f798 44bb
00000060: 8d10 3cbe 5632 05be b5df 083e c91c 1b3e
00000070: 8bda e9bd 9f27 d2bc c13b e93d 8f4b 563e
00000080: 9fdd 723e 415c fbbd 43e0 f33d 455a b1be
00000090: 55c0 15be fc10 213d 378c fe3d 4679 28bd
000000a0: 606a c1bd 07c6 15be 5758 383e 5424 35be
000000b0: b474 723d 6dc9 4bbe c3d4 813d 4297 05be
000000c0: b6b9 a93d 8ca4 553c 582b 4cb9 3a6c 5d3c
000000d0: ac6b 2b3e 7170 a83d a003 16bb 4f2c 76be
000000e0: 9073 0abe 6315 ef3d e318 e23d 2b90 efbc
000000f0: 008e b53d 5aed ad3d a8cb 7cbe 706f e13d
00000100: 63cf 323e b668 5d3c ee28 aa3c afb9 033e
00000110: 2fba f03d 9b84 4dbd 1b30 be3d 037f 053d
00000120: 1336 473d 22b5 0dbd ffc6 8d3c 50b0 f5bc
00000130: e661 53be 8fa2 15be e1e8 5dbd 8bfc c7bd
00000140: 278e 52b9 f6ce a73d d5b4 26be a60e 3e3e
00000150: d77a 19be 95aa a8be 2174 cdbd 7b81 e33c
00000160: 1bc8 a43e 736f 4dbd 8ab4 37be 05cb 7dbe
00000170: a107 083d ef54 eebd fa86 c83d 4a51 1cbe
00000180: 81b4 5ebe 5d65 333e d4fa 103d 4c1e b43c
00000190: f7a8 61be 5e5c 383e 832c 1abe cf9d c6bc
000001a0: 462a febd 5069 25bd 6002 213e 7762 57bd
000001b0: bac1 21be 29e1 293e 4835 e03d 87b6 7ebd
000001c0: d1e6 40be 4a04 9dbd 2c67 e0bd 0ac3 59be
000001d0: 4c89 8b3d 4aa0 73bd 59b4 f13d 3e82 2e3e
000001e0: 3e1a 3dbe 0cf0 ef3d b3ac 0dbe 0b4c 1a3e
000001f0: d637 bf3d 46df 3dbe f057 be3d 3c30 6f3e
00000200: 7295 323d 591c 1a3e 40ec 39be d49e f13c
00000210: 98ae 34be 007f 24be f101 833c e249 653e
00000220: f7b6 1f3e ca4a 80bd 8493 8c3e 3b6a 933d
00000230: 834a b63e 41ac da3d 0026 18be 519b d4bd
00000240: 938d 48be 52f1 193e fe29 04bd 14f9 e33c
00000250: e2f1 7d3e 573b 09be dbef 1dbe 4c6e 663e
00000260: babf 8e3d 8103 1d3e 7101 863b c214 883d
00000270: af71 df3d 62dd 053e 17a7 be3d 70dd 24be
00000280: 71f1 b73d f80a c13d aaa7 153e c87a 25bd
00000290: 1225 89bd 5c45 63be 7910 a5bd 485c b7bd
000002a0: 1e98 0abe 9e8c 31be 226a 3dbe 48a2 8dbd
000002b0: 2670 083e 8acc 893e c461 4f3d 9bb2 bdbd
000002c0: fe94 a1be 4c5e c4bd d93d 92be 74e9 813e
000002d0: 2bb1 9fbe 216f 91be eb51 523e 1fa9 f43d
000002e0: 38cd 143e 1a0e f43d 6c22 dbbd bccb 303d
000002f0: b82e 4abd dd49 08be ba92 08be 4a22 0dbe
00000300: 2eda 793e 2fe9 913e 6588 c7bc 0eaa 7ebd
00000310: aae6 c0bd f4b4 483d 7e49 96be e220 883c
00000320: 324b 3bbe cba7 23be 3971 36be 1b0d 193e
00000330: 9969 293e 37b4 4c3d 89ef 363e fa5e 86be
00000340: b296 1e3e 01b1 383e d8e8 41be 3af3 fdbc
00000350: 8e0f 9c3d 8f1a ea3d a095 8f3e 5cdf 12be
00000360: 883c e83d 3eb9 51be ebbe 893d 1bfd 2d3d
00000370: 004f 463e 7a01 953c ea63 953d aaa4 e93d
00000380: a457 a13e ffca 1e3e 0062 373e 8197 ccbd
00000390: 1812 bebc 87de bdbd 7dc3 f2bd c81b 01be
000003a0: 4268 153c d5bc b03d 39a6 4dbd 640b 373e
000003b0: 6beb 753d 5e56 22be 0a1f 86bc 5a60 ff3d
000003c0: 76cb 663d 538c 24be 14fe bbbc 30fe 9abd
000003d0: 39a6 88bc e070 8abd 7b84 d2bd 81bb 3bbe
000003e0: 4e4e a23d 0076 58be c785 133e e79e d63d
000003f0: da29 56be d80f 1f3d 190e 97bd 5fd2 11be

fc2.weight f4 [150, 300]
-0.06659627 0.0052533546 -0.050367165 -0.1243285 0.0878517 0.017410915 -0.48247707 -0.26428863
0.06714986 -0.14109513 -0.35513 -0.09831779 0.15809691 -0.12615557 -0.094969824 -0.08804981
0.004313216 0.024983205 -0.04455614 -0.2001237 0.058724646 0.015026705 0.16082048 -0.08797467
-0.0062484257 0.6204182 -0.05355026 -0.076508984 -0.032446172 -0.2776815 0.0037661486 0.053929225
-0.17353527 0.06642974 0.19235225 0.10143619 -0.121160075 0.029699469 -0.15446414 0.09067696
0.17218122 -0.14673856 -0.1061884 -0.020505691 0.043241665 0.19760264 0.4807708 0.12001
0.0020272655 -0.09908465 0.063391685 -0.064767994 0.018671818 0.2789838 0.099548794 0.5496453
0.12401783 -0.11484503 0.0260634 -0.030531466 -0.04365387 0.025181925 -0.018832467 0.023133129
-0.016790623 0.11426799 0.0667065 0.20576127 0.09242241 -0.09720723 0.06598857 -0.08090574
0.053634435 0.02139659 -0.04889938 -0.04393255 0.22054733 -0.022326553 -0.0636687 -0.0679027
0.120808244 0.011801995 0.07305351 0.09240969 0.29231274 0.07965251 -0.11870152 -0.09353826
-0.11256776 0.03663684 0.055739544 0.1546463 0.029154954 -0.14593963 -0.007649266 0.114784464
0.10105747 -0.2454886 -0.21264634 -0.08096971 0.041404244 -0.0919054 0.07645125 0.21324688
-0.06679842 -0.01998166 -0.14815436 0.18789116 0.35173815 -0.120981656 -0.017644826 -0.06908761
-0.088286586 -0.10331945 0.00023902427 0.047125414 -0.078186944 0.19473463 -0.076878786 0.007355822
0.22322665 -0.045504503 -0.090236984 -0.012492426 0.005380804 0.06849356 0.089230895 -0.103995875
-0.020558462 -0.073227614 0.06548935 -0.04531131 0.10473367 0.066854864 -0.02971347 -0.1544907
0.006892544 0.032652408 0.1115014 -0.09057893 -0.12537047 0.13269033 0.14184684 0.07262197
0.009252559 -0.08532829 -0.01415163 0.011351573 -0.11018995 0.017471474 -0.09544658 -0.13284484
-0.078993544 -0.04394525 -0.010333596 -0.027483262 -0.19063142 -0.08641596 0.105369076 0.102174975
0.18840036 0.09755793 0.13342443 0.007868627 0.09265863 -0.069202214 0.06975927 0.004628042
-0.15060233 0.021668447 0.052611478 0.079175726 0.010851716 -0.122821316 -0.039266374 0.1304405
0.38438776 0.07977158 0.20682263 -0.03342067 0.010231524 0.30836523 -0.11338278 -0.04190872
-0.10805359 0.114145674 -0.037341077 -0.015048048 -0.06299534 0.13699815 -0.03781722 -0.005443191
-0.029800223 -0.227986 0.17194343 -0.08801517 0.16428608 0.03772282 -0.110311195 0.014033155
0.019300686 0.22482033 0.05140921 0.00028222764 0.15047765 -0.013329036 0.11462696 0.22400486
0.018573156 -0.0739515 0.029512392 -0.121773444 0.033890598 -0.09004574 0.039496157 -0.041185156
-0.06714695 0.13140725 -0.022470374 0.03708395 0.057614256 -0.0097942185 0.14002791 -0.088243924
-0.2456269 -0.0037742278 0.010812953 -0.11181228 0.15672275 -0.07312793 -0.15857106 0.13810922
-0.08029135 -0.22453159 -0.057754073 -0.0138755655 0.044764243 -0.050370507 -0.025099808 -0.0044982927
-0.14594626 0.013379008 -0.026891736 -0.24471956 0.015673187 0.05498353 0.042580817 -0.028591665
-0.08278767 0.43424445 -0.101841986 0.058626417 -0.082132496 0.030916873 0.055258673 -0.03182992
00000000: a063 88bd 5524 ac3b cd4d 4ebd f19f febd
00000010: 98eb b33d 56a1 8e3c 3c07 f7be d750 87be
00000020: de85 893d 3e7b 10be 99d3 b5be d65a c9bd
00000030: 28e4 213e ed2e 01be 8a7f c2bd 7553 b4bd
00000040: e155 8d3b 94a9 cc3c 8080 36bd 3aed 4cbe
00000050: 4189 703d 9232 763c 20ae 243e 102c b4bd
00000060: 98bf ccbb bad3 1e3f 8457 5bbd beb0 9cbd
00000070: 47e6 04bd 452c 8ebe 7dd1 763b e4e4 5c3d
00000080: 3bb3 31be 510c 883d fdf7 443e c7bd cf3d
00000090: c622 f8bd 4d4c f33c d92b 1ebe d8b4 b93d
000000a0: 4650 303e a242 16be 4e79 d9bd 8dfb a7bc
000000b0: 2c1e 313d 5958 4a3e 9727 f63e cec7 f53d
000000c0: dfdb 043b e5ec cabd 80d3 813d 15a5 84bd
000000d0: a4f5 983c f7d6 8e3e 3de0 cb3d 8eb5 0c3f
000000e0: 0ffd fd3d df33 ebbd e982 d53c 201d fabc
000000f0: 66ce 32bd 534a ce3c 8c46 9abc b081 bd3c
00000100: 7d8c 89bc 5605 ea3d 6b9d 883d 15b3 523e
00000110: f647 bd3d 9614 c7bd 0425 873d e9b1 a5bd
00000120: c8af 5b3d e747 af3c b74a 48bd 9ef2 33bd
00000130: 29d7 613e 2de6 b6bc bc64 82bd 9210 8bbd
00000140: 506a f73d 285d 413c 149d 953d 4b41 bd3d
00000150: 04aa 953e db20 a33d c819 f3bd fd90 bfbd
00000160: ed89 e6bd 8310 163d 264f 643d 9a5b 1e3e
00000170: 5fd6 ee3c 3371 15be b2a6 fabb 1e14 eb3d
00000180: 38f7 ce3d 5d61 7bbe f6bf 59be 73d3 a5bd
00000190: 7f97 293d e638 bcbd 7992 9c3d 645d 5a3e
000001a0: 9ccd 88bd 94b0 a3bc c7b5 17be 8a66 403e
000001b0: 0617 b43e 3bc5 f7bd e28b 90bc ce7d 8dbd
000001c0: 99cf b4bd 2699 d3bd 97a2 7a39 9406 413d
000001d0: 7a20 a0bd 8468 473e a072 9dbd 1b09 f13b
000001e0: 8795 643e ee62 3abd 2bce b8bd 08ad 4cbc
000001f0: 7551 b03b 5a46 8c3d b0be b63d cafb d4bd
00000200: 386a a8bc 5cf8 95bd 481f 863d 5a98 39bd
00000210: 9b7e d63d 34eb 883d aa69 f3bc cf32 1ebe
00000220: dada e13b 88be 053d d95a e43d 7281 b9bd
00000230: 1e61 00be f9df 073e 4c40 113e d4ba 943d
00000240: 0c98 173c 99c0 aebd 3ddc 67bc f3fb 393c
00000250: 45ab e1bd 5620 8f3c 7f79 c3bd 7a08 08be
00000260: 5ec7 a1bd efff 33bd 3e4e 29bc 9424 e1bc
00000270: e234 43be dafa b0bd becb d73d 1d41 d13d
00000280: 06ec 403e 74cc c73d 6aa0 083e 6aeb 003c
00000290: cfc3 bd3d e4b9 8dbd f3dd 8e3d d5a6 973b
000002a0: 7f37 1abe 0782 b13c 227f 573d e226 a23d
000002b0: 65cb 313c be89 fbbd c7d5 20bd 3292 053e
000002c0: 79ce c43e 485f a33d 50c9 533e 1de4 08bd
000002d0: 1fa2 273c 0ce2 9d3e 3b35 e8bd 7aa8 2bbd
000002e0: 334b ddbd 35c5 e93d f5f2 18bd 178c 76bc
000002f0: b303 81bd 3e49 0c3e 3be6 1abd cc5c b2bb
00000300: 991f f4bc 2975 69be f011 303e 4c41 b4bd
00000310: 9c3a 283e 3e83 1a3d d6ea e1bd 51eb 653c
00000320: 791c 9e3c 4d37 663e 7792 523d f4f7 9339
00000330: d016 1a3e 0762 5abc 8ac1 ea3d 8861 653e
00000340: bb26 983c e273 97bd f9c3 f13c 5b64 f9bd
00000350: ded0 0a3d e769 b8bd b9c6 213d c4b1 28bd
00000360: 5784 89bd 9f8f 063e ca13 b8bc 57e5 173d
00000370: edfc 6b3d ee77 20bc 7a63 0f3e 3bb9 b4bd
00000380: 9e85 7bbe 0959 77bb d028 313c d6fd e4bd
00000390: ee7b 203e 19c4 95bd 7460 22be 816c 0d3e
000003a0: cb6f a4bd 9ceb 65be 898f 6cbd 5756 63bc
000003b0: b65a 373d 4e51 4ebd 1d9e cdbc 6a66 93bb
000003c0: f072 15be a033 5b3c 0f4c dcbc c497 7abe
000003d0: 0e65 803c 6936 613d 3969 2e3d 1139 eabc
000003e0: 958c a9bd 4a55 de3e 8892 d0bd 4122 703d
000003f0: 1535 a8bd 6245 fd3c eb56 623d 1760 02bd

fc2.bias f4 [150]
-0.5054195 0.26969212 -0.050675094 0.2601152 -0.30232918 -0.48516783 0.11360974 0.041426662
0.22432971 -0.18785948 -0.12362654 -0.21122554 0.028049266 0.23397098 -0.012639266 -0.03682983
-0.106860146 -0.07869708 0.20121095 0.026872175 -0.03397264 0.1357797 -0.22390865 -0.38017625
-0.21346998 0.106770806 0.047672 0.11683637 0.4013171 -0.017830627 0.044161055 0.3121081
0.22387381 0.18326755 -0.1453419 0.42544755 0.38464782 -0.08113783 -0.18265472 -0.2979944
-0.33993408 0.29143313 0.14640895 0.28442118 -0.2724541 -0.41639104 -0.4036626 -0.1397224
0.00073171215 0.29857403 0.24967265 0.10598703 0.41356498 0.14471553 -0.14333598 0.10187129
0.20300919 0.022058116 0.17537327 0.13984373 0.15399228 -0.19202794 -0.25073245 -0.1437553
-0.09568159 0.03895753 -0.07223498 -0.36079395 0.14797746 -0.15799715 -0.21528529 0.09182311
0.049007557 0.025059026 -0.20428972 -0.11620785 -0.18835728 -0.17286459 0.11653536 -0.27927467
0.32400936 -0.33832923 -0.079151355 -0.053872254 0.14081123 0.09691045 -0.15506195 0.1050361
0.01710644 0.13743208 0.34383702 -0.012217776 0.20884967 0.043820184 -0.0074661956 0.010851604
0.14289157 -0.19982076 0.21336451 -0.19321486 -0.26276356 0.24719971 0.18939401 -0.24643661
-0.15477355 0.24621089 0.2934561 0.176944 -0.29108062 0.08595087 0.1616276 -0.15850073
0.45487413 -0.114910625 0.19987218 0.24189745 0.3196438 0.3198607 -0.11197454 0.27129567
-0.24053803 -0.16044132 -0.2814209 -0.1675535 0.11390799 0.052920423 -0.23833968 0.03837843
0.24976982 -0.1268787 -0.17179616 0.23033597 -0.053601176 -0.06666292 -0.06309256 -0.082901426
-0.20020862 0.054847002 -0.20186152 -0.0627333 0.07386606 0.14648375 0.023849355 0.45730034
0.013181824 -0.016086068 0.35085982 0.03123488 -0.32325664 -0.13834363
00000000: 2c63 01bf 1615 8a3e b090 4fbd d22d 853e
00000010: e4ca 9abe eb67 f8be 39ac e83d 01af 293d
00000020: b0b6 653e 3c5e 40be e92f fdbd 824b 58be
00000030: 93c7 e53c 1796 6f3e ed14 4fbc e0da 16bd
00000040: 7ed9 dabd ef2b a1bd 3e0a 4e3e 0923 dc3c
00000050: e526 0bbd d509 0b3e 4f48 65be 76a6 c2be
00000060: e097 5abe a7aa da3d b743 433d e847 ef3d
00000070: 6f79 cd3e 8911 92bc 39e2 343d a2cc 9f3e
00000080: 2d3f 653e 7daa 3b3e 82d4 14be 43d4 d93e
00000090: 8ff0 c43e 972b a6bd d709 3bbe b992 98be
000000a0: d70b aebe b936 953e 3aec 153e a79f 913e
000000b0: 1b7f 8bbe 3531 d5be ddac cebe 6413 0fbe
000000c0: 5fd0 3f3a b2de 983e 30aa 7f3e ba0f d93d
000000d0: cabe d33e 4f30 143e abc6 12be e5a1 d03d
000000e0: a4e1 4f3e 39b3 b43c 0d95 333e 3233 0f3e
000000f0: 27b0 1d3e f9a2 44be 0160 80be 9734 13be
00000100: b6f4 c3bd ee91 1f3d efef 93bd fcb9 b8be
00000110: 6787 173e 01ca 21be bf73 5cbe c10d bc3d
00000120: 26bc 483d 9648 cd3c 5331 51be 62fe edbd
00000130: bbe0 40be 6a03 31be 17aa ee3d 17fd 8ebe
00000140: 8ee4 a53e 7d39 adbe 1b1a a2bd 27a9 5cbd
00000150: d230 103e fc78 c63d 8fc8 1ebe 2b1d d73d
00000160: ce22 8c3c ffba 0c3e 680b b03e 112d 48bc
00000170: b0dc 553e cb7c 333d fda6 f4bb edca 313c
00000180: 2b52 123e d09d 4cbe 3a7c 5a3e 1eda 45be
00000190: f288 86be ec21 7d3e 81f0 413e e159 7cbe
000001a0: f57c 1ebe b51e 7c3e e13f 963e cf30 353e
000001b0: 8508 95be 0207 b03d b581 253e 044e 22be
000001c0: 43e5 e83e 4356 ebbd 4bab 4c3e f7b3 773e
000001d0: 5aa8 a33e c8c4 a33e e852 e5bd 44e7 8a3e
000001e0: 9a4f 76be bb4a 24be 6616 90be 2593 2bbe
000001f0: 9848 e93d 16c3 583d 510f 74be b332 1d3d
00000200: a9c3 7f3e 7dec 01be 55eb 2fbe 31dd 6b3e
00000210: e88c 5bbd 9286 88bd ac36 81bd 39c8 a9bd
00000220: 7d03 4dbe 40a7 603d c9b4 4ebe 517a 80bd
00000230: 1747 973d d6ff 153e b95f c33c 4523 ea3e
00000240: 94f8 573c eec6 83bc e6a3 b33e 4be0 ff3c
00000250: e581 a5be f4a9 0dbe

fc3.weight f4 [2, 150]
0.0662939 0.09156642 0.015569606 -0.043819692 -0.018434389 0.057591762 -0.0380955 0.061112136
-0.050958183 0.021922678 0.054663565 -0.029101687 0.04081091 -0.09930358 0.08825732 0.09105816
-0.054960676 -0.040290795 -0.06754494 0.039238334 0.040591408 0.06496052 -0.09320706 0.06267846
0.03979878 -0.09543786 0.06841471 -0.09457046 -0.06793551 0.09155479 -0.05035908 0.046301134
-0.10980137 -0.022461738 0.035020065 -0.063425906 -0.08090725 -0.122007996 0.042209648 -0.06350357
0.024234599 -0.04614043 -0.070126034 -0.088638715 0.004523615 0.032051258 0.103333205 0.079863794
0.04137571 0.012137905 -0.039907746 -0.042520516 -0.05998203 -0.022009887 0.02049841 0.0511985
-0.0634568 -0.040789 -0.07234714 0.031495687 -0.0047472334 -0.02015747 0.06809009 -0.038120657
0.04522023 -0.04474733 -0.049813364 0.06160581 0.10627832 0.047962595 0.024845928 0.02743071
0.031851444 0.04584625 0.09433135 -0.070249416 -0.05416595 -0.07893201 -0.07772966 0.035952337
-0.04351544 0.0811947 0.07375069 -0.05475062 -0.043869812 -0.086224765 0.07171982 -0.03928469
-0.051844835 -0.053296886 -0.056565627 0.09972448 -0.044000622 0.049751602 -0.089930385 -0.034463663
-0.04313752 0.023741893 -0.06432671 0.094531186 0.04665785 -0.018050954 -0.036279473 -0.0780765
-0.05971588 0.0053191083 -0.04798902 -0.035247833 0.050033584 0.091243386 -0.0079148775 0.07221287
-0.08030719 -0.01581658 -0.053352665 -0.04696655 -0.052289814 -0.028752469 -0.042137098 -0.07915811
0.0615158 -0.0622233 0.032688968 0.032770135 -0.049479816 0.048327014 0.0583297 0.106821135
-0.034687582 0.063587464 0.09367778 -0.0617053 0.029588344 -0.061348297 0.061542705 0.06319912
-0.02862838 0.05825568 0.07755682 -0.047936276 0.035391573 0.04424812 0.042057868 -0.056235537
0.07189116 -0.048647575 -0.030619197 0.023627218 0.008000544 0.021292377 -0.047389 -0.0193581
-0.09946075 0.058817767 0.09483114 -0.060138714 0.08240002 -0.04809438 0.048369452 -0.07735887
-0.055708542 0.08859408 -0.062287774 -0.004846053 -0.015299691 -0.06952404 0.05417435 0.049711525
0.060083687 -0.08668597 -0.082727805 -0.058554173 0.024483185 -0.062420115 -0.06422191 0.04389028
-0.027327675 0.014913519 0.030974142 -0.009340807 0.11120479 -0.065263554 0.0017148394 0.06746728
-0.07562341 0.037615463 0.056265634 0.029917365 -0.07769835 0.049010213 -0.07846549 0.053941865
0.06059043 0.011730686 -0.09463863 -0.070307225 0.0027465494 -0.04592665 -0.061548 -0.109762125
0.06632701 0.06994962 0.04380885 0.10709688 -0.065964326 -0.062974475 0.054287944 0.07301797
0.03415952 -0.11370339 0.08009111 0.10238553 -0.07026288 0.07743194 -0.060706973 0.04956535
0.04726241 -0.05234084 -0.01368922 -0.049937993 -0.06181961 -0.07775585 -0.073813535 -0.061162237
-0.029398886 0.033201635 0.04998605 0.03512572 0.02113534 -0.07023405 0.096316695 -0.024767758
-0.041982785 0.05077466 0.080645576 0.025636027 -0.026321674 0.059752103 0.06277735 0.06946064
0.045394074 -0.012064753 0.04496363 -0.05263308 0.04274021 0.061562553 0.07305152 -0.07510748
0.07060933 -0.0093278885 -0.043840226 0.082055524 0.069136955 0.03395801 0.060385317 -0.09745826
00000000: 19c5 873d 2d87 bb3d a917 7f3c 477c 33bd
00000010: b703 97bc 57e5 6b3d 070a 1cbd b850 7a3d
00000020: 87b9 50bd 3097 b33c e7e6 5f3d a966 eebc
00000030: 5729 273d ad5f cbbd 41c0 b43d b37c ba3d
00000040: 721e 61bd f607 25bd 0055 8abd 60b8 203d
00000050: 2d43 263d 050a 853d 58e3 bebd 905d 803d
00000060: 0c04 233d ed74 c3bd 031d 8c3d 28ae c1bd
00000070: c621 8bbd 1481 bb3d 5345 4ebd 42a6 3d3d
00000080: 8adf e0bd ae01 b8bc 3371 0f3d 71e5 81bd
00000090: b3b2 a5bd 54df f9bd 06e4 2c3d 290e 82bd
000000a0: a387 c63c bffd 3cbd 3d9e 8fbd 3788 b5bd
000000b0: d53a 943b 2e48 033d 5ca0 d33d a18f a33d
000000c0: 9479 293d 10de 463c 4e76 23bd fe29 2ebd
000000d0: b8af 75bd 144e b4bc 48ec a73c 85b5 513d
000000e0: a4f5 81bd 5e12 27bd bd2a 94bd 9f01 013d
000000f0: ae8e 9bbb 4721 a5bc d172 8b3d 6824 1cbd
00000100: d938 393d fa48 37bd 1909 4cbd 6056 7c3d
00000110: 73a8 d93d 6d74 443d b089 cb3c 5eb6 e03c
00000120: a976 023d 47c9 3b3d cb30 c13d edde 8fbd
00000130: 1ddd 5dbd 1ba7 a1bd ba30 9fbd c242 133d
00000140: 3f3d 32bd 6849 a63d 9a0a 973d 3042 60bd
00000150: d5b0 33bd 9c96 b0bd d7e1 923d fce8 20bd
00000160: 405b 54bd d64d 5abd 5cb1 67bd 593c cc3d
00000170: ff39 34bd 56c8 4b3d 6c2d b8bd c529 0dbd
00000180: f8b0 30bd 5c7e c23c b9bd 83bd 9199 c13d
00000190: 4d1c 3f3d 98df 93bc c999 14bd 92e6 9fbd
000001a0: a398 74bd ea4b ae3b 2290 44bd 0860 10bd
000001b0: 04f0 4c3d d0dd ba3d 67ad 01bc 57e4 933d
000001c0: 1978 a4bd c691 81bc 5388 5abd ff5f 40bd
000001d0: d82d 56bd 4c8a ebbc f397 2cbd a61d a2bd
000001e0: fef7 7b3d dcdd 7ebd dee4 053d fa39 063d
000001f0: 59ab 4abd 8cf2 453d 20eb 6e3d 0ac5 da3d
00000200: 9114 0ebd 253a 823d 23da bf3d b2be 7cbd
00000210: 4163 f23c 5a48 7bbd 3414 7c3d 8a6e 813d
00000220: 1086 eabc 829d 6e3d 1cd6 9e3d d458 44bd
00000230: c1f6 103d 843d 353d df44 2c3d 3c57 66bd
00000240: ac3b 933d ae42 47bd 1cd5 fabc de8d c13c
00000250: b714 033c 5a6d ae3c f81a 42bd e194 9ebc
00000260: 14b2 cbbd e6ea 703d d436 c23d 0354 76bd
00000270: 57c1 a83d 9dfe 44bd 0c1f 463d 546e 9ebd
00000280: a42e 64bd d070 b53d 7721 7fbd a4cb 9ebb
00000290: 8eab 7abc 9f62 8ebd ece5 5d3d 509e 4b3d
000002a0: 501a 763d 6a88 b1bd 326d a9bd 80d6 6fbd
000002b0: f690 c83c 3cac 7fbd c786 83bd 4bc6 333d
000002c0: 4ade dfbc d557 743c 7cbd fd3c 2f0a 19bc
000002d0: 56bf e33d e6a8 85bd 76c4 e03a 492c 8a3d
000002e0: 72e0 9abd ac12 1a3d cb76 663d 4315 f53c
000002f0: 5020 9fbd efbe 483d 84b2 a0bd 25f2 5c3d
00000300: ac2d 783d 1032 403c e6d1 c1bd 3cfd 8fbd
00000310: 74ff 333b 951d 3cbd c119 7cbd f7ca e0bd
00000320: 75d6 873d bf41 8f3d e970 333d 9c55 db3d
00000330: 4e18 87bd c3f8 80bd 095d 5e3d 728a 953d
00000340: daea 0b3d 53dd e8bd cf06 a43d 81af d13d
00000350: fce5 8fbd a394 9e3d e0a7 78bd 0905 4b3d
00000360: 3b96 413d 5963 56bd c048 60bc c88b 4cbd
00000370: 8f36 7dbd 763e 9fbd 8d2b 97bd 4185 7abd
00000380: efd5 f0bc 70fe 073d 2cbe 4c3d fddf 0f3d
00000390: 0524 ad3c dfd6 8fbd b041 c53d c1e5 cabc
000003a0: 24f6 2bbd 17f9 4f3d 8229 a53d a502 d23c
000003b0: 8da0 d7bc 9fbe 743d 6991 803d 6141 8e3d
000003c0: 23ef 393d 3eab 45bc c92b 383d c995 57bd
000003d0: 5c10 2f3d 0429 7c3d 099c 953d f3d1 99bd
000003e0: a09b 903d 00d4 18bc cf91 33bd ba0c a83d
000003f0: ad97 8d3d 8e17 0b3d 9856 773d 3298 c7bd

fc3.bias f4 [2]
0.05769202 -0.09743936
00000000: 784e 6c3d 4a8e c7bd
