avaxtar/model_pytorch1.pt (torch, 905220 bytes, 6 tensors)

fc1.weight f4 [300, 600]
0	0xbe10d536	-0.14143834
1	0x3d0291a5	0.03187718
2	0x3d423b84	0.04742004
3	0x3dea238b	0.114325605
4	0xbd20f62d	-0.03929727
5	0xbd278ae5	-0.040903945
6	0xbdb96b7a	-0.09053703
7	0xbe1add12	-0.15123394
8	0xbd611a8a	-0.05495695
9	0xbd946a83	-0.07246878
10	0xbcaccd01	-0.021093847
11	0x3d4c10c9	0.049820695
12	0x3d5dbd68	0.05413571
13	0xbd7fdb5f	-0.062465068
14	0x3d6c3166	0.057664298
15	0x3c7ad848	0.0153103545
16	0xbd6debc1	-0.05808616
17	0xbd81ad2c	-0.06331858
18	0xbda633f8	-0.08115381
19	0xbd4fe34c	-0.050753877
20	0xbbafe3a3	-0.0053677126
21	0x3caef6d8	0.021357939
22	0xbd9014fd	-0.07035253
23	0xbd211ec6	-0.03933599
24	0x3d82898b	0.063738905
25	0x3d9f3f38	0.0777573
26	0x3d294410	0.041324675
27	0x3bc75429	0.0060830307
28	0x3d611cd0	0.05495912
29	0x3c533e04	0.012893204
30	0x3cd1fc47	0.02563299
31	0xbcb63e05	-0.02224637
32	0x3d7b8cd4	0.0614136
33	0x3d9791b8	0.074008405
34	0x3dcfb31a	0.10141583
35	0x3d6739fa	0.056451775
36	0xbdb06631	-0.086132415
37	0x3c339ace	0.010962201
38	0xbd2cfe64	-0.042234793
39	0x3c2dcb05	0.010607486
40	0xbc97ff19	-0.018554257
41	0x3d2bca3d	0.041940916
42	0x3c81f4e2	0.01586384
43	0x3d844890	0.06459153
44	0x3dc803cb	0.097663485
45	0x3ce0011a	0.027344275
46	0x3d7525a1	0.05985034
47	0xbd12f236	-0.03587552
48	0xbd8c94e4	-0.06864336
49	0xbd7e4867	-0.062080767
50	0x3d72213a	0.05911372
51	0xbe339e8c	-0.1754095
52	0x3cbee3d9	0.023302006
53	0x3cb41ba3	0.021985834
54	0xbc2a5551	-0.010396318
55	0xbda5a7df	-0.080886595
56	0x3e25132b	0.16120593
57	0xbc38b79c	-0.011274245
58	0xbdef02b5	-0.11670438
59	0xbc8d90d9	-0.017280983
60	0xbd30ad9b	-0.043134313
61	0x3de0c3c5	0.1097484
62	0xbd953474	-0.07285395
63	0x3d993537	0.07480853
64	0xbe0a6b17	-0.13517414
65	0xbb310878	-0.0027013104
66	0xbce3d8dd	-0.02781337
67	0x3c0e4aca	0.008684823
68	0x3c5d1755	0.013494332
69	0xbb8e29ea	-0.0043384926
70	0xbcea1427	-0.028574063
71	0xbdfff4cc	-0.12497863
72	0xbc2e4266	-0.010635948
73	0x3bab840c	0.005234247
74	0xbcd69755	-0.026195208
75	0x3e000d4b	0.12505071
76	0xbc1627ce	-0.009164764
77	0xbd9f0625	-0.07764844
78	0x3dbae28b	0.09125241
79	0xbbcc0a21	-0.0062267934
80	0x3c9f909e	0.019478139
81	0x3be738e4	0.0070563424
82	0xbd342b2e	-0.04398649
83	0x3d90e5b9	0.07075066
84	0xbbf9bddd	-0.0076215104
85	0xbcbe20f3	-0.02320907
86	0x3d08f5d3	0.03343756
87	0xbd87447a	-0.06604858
88	0xbc9a372a	-0.018825132
89	0xbd8e25b8	-0.06940788
90	0xbd8b2a49	-0.06795175
91	0xbc76ea80	-0.015070558
92	0x3d039c84	0.032131687
93	0xbd829325	-0.06375722
94	0xbc863866	-0.016384315
95	0xbbd34611	-0.0064475616
96	0xbc9db58e	-0.019251611
97	0x3c02712b	0.007961552
98	0xbc55292d	-0.013010305
99	0x3bedb1f3	0.007253879
100	0x3c57ab21	0.013163359
101	0xbd7160f2	-0.058930345
102	0x3d580af1	0.05274481
103	0xbd99da9c	-0.075123996
104	0xbc28f495	-0.010312219
105	0x3dc9ea36	0.09859125
106	0x3dc3bd9b	0.09557649
107	0xbd0e6939	-0.034768317
108	0x3dc29159	0.09500379
109	0xbd4fc4a9	-0.05072466
110	0xbd173e47	-0.036924627
111	0x3c1f14f5	0.009709586
112	0xbdb09ec9	-0.08624036
113	0x3b5969eb	0.0033174704
114	0xbcdb3889	-0.026760357
115	0x3d45c1bf	0.048280474
116	0xbda3bc3f	-0.079948895
117	0xbdb3cac1	-0.087789066
118	0xbc2f3ecf	-0.010696127
119	0xbd32c527	-0.04364505
120	0x3da88604	0.082286865
121	0x3b6fb0f8	0.0036573987
122	0x3db6954b	0.08915194
123	0x3c82ff57	0.015990896
124	0x3dfb8952	0.12282051
125	0xbd8c58a5	-0.06852845
126	0xbdfa7c76	-0.1223077
127	0xbcb5f1b9	-0.022209989
128	0x3c2aeb01	0.010432006
129	0x3d55237b	0.05203579
130	0xbbafe61e	-0.0053680083
131	0xbc28e717	-0.010309002
132	0x3ba96eb4	0.0051706675
133	0x3c2eb6f2	0.010663735
134	0x3dbb00f7	0.091310434
135	0xbd53c3f0	-0.051700532
136	0xbd49d2ea	-0.04927341
137	0x3d93d1f2	0.07217778
138	0xbc946dc5	-0.018118748
139	0x3dfd0eec	0.12356362
140	0xbb8e73b5	-0.0043472894
141	0x3cbae99d	0.022816474
142	0xbd8448c7	-0.06459194
143	0x3d222d54	0.03959401
144	0x3c958895	0.018253604
145	0xbe0606ed	-0.1308858
146	0x3d365445	0.04451396
147	0xbdfd2920	-0.123613596
148	0x393a9724	0.00017794647
149	0xbc9989bd	-0.018742437
150	0x3c9f2094	0.019424714
151	0x3dc7b746	0.097517535
152	0xbb23ccfa	-0.0024994002
153	0x3d6fc718	0.05853948
154	0xbca47e59	-0.020079779
155	0x3d32692a	0.043557324
156	0xbd39b270	-0.045336187
157	0x3e1b304c	0.15155143
158	0xbcce7fa6	-0.025207352
159	0xbd13ce44	-0.036085382
160	0xbcec6bbc	-0.028859966
161	0x3c79dd32	0.015250491
162	0xbd02b800	-0.031913757
163	0x3d84893f	0.0647149
164	0xbd33c6be	-0.043890707
165	0x3dbfce98	0.093655765
166	0x3d61a5a9	0.055089626
167	0x3c84ce29	0.016211586
168	0x3d81061e	0.06299995
169	0x3ca50d96	0.02014808
170	0xbd9b5e4e	-0.075863466
171	0xbb7f14a7	-0.0038922222
172	0xbcfb34af	-0.03066477
173	0xbc009612	-0.00784828
174	0xbd415b20	-0.047206044
175	0xbd93995f	-0.072069876
176	0xbdd21772	-0.10258378
177	0xbccfa736	-0.025348287
178	0x3dcbced3	0.09951558
179	0x3d193ddc	0.03741251
180	0xbc27f9dd	-0.010252443
181	0x3d8d12c2	0.068883434
182	0x3de419ca	0.111377314
183	0x3d34589f	0.04402983
184	0x3b682c3e	0.003542676
185	0x3d5d84b7	0.054081645
186	0xbdd7c8d1	-0.105363496
187	0xbd58970a	-0.052878417
188	0xbd837a38	-0.06419796
189	0xbc668171	-0.014068947
190	0x3c4ca2d7	0.012489996
191	0x3da50468	0.08057481
192	0xbd3f530e	-0.046710066
193	0xbcd5636b	-0.026048383
194	0x3d169f6f	0.03677314
195	0xbcf685f9	-0.03009318
196	0x3dad9512	0.084756985
197	0xbc38e45b	-0.011284913
198	0x3da92621	0.08259226
199	0xbd3fb930	-0.046807468
200	0x3e4d05eb	0.20021789
201	0xbdfdf2c9	-0.12399823
202	0x3cd83f7c	0.02639746
203	0x3c8bea7f	0.01707959
204	0x3dc98b23	0.09840991
205	0xbc034b34	-0.008013535
206	0x3da95116	0.08267419
207	0x3d8273a8	0.06369716
208	0x3db0c26c	0.08630833
209	0xbd8a2e27	-0.06747084
210	0x3ddc161c	0.107464045
211	0xbded79cb	-0.11595496
212	0xbd2e8c6d	-0.04261439
213	0xbb0a72c5	-0.0021125537
214	0xbd1a0ef7	-0.037611928
215	0x3dba0ffe	0.090850815
216	0xbda29030	-0.07937658
217	0x3ccb3c46	0.024809014
218	0xbd5f26fb	-0.054480534
219	0xbd17fdac	-0.037107155
220	0x3d61de89	0.055143867
221	0xbdb336ad	-0.08750663
222	0xbe4243ec	-0.18971223
223	0x3bc26dd8	0.0059335046
224	0x3dee54e9	0.11637289
225	0x3da9c79a	0.08290024
226	0x3defaa48	0.117024004
227	0x3d1a72fb	0.03770731
228	0x3db3bed7	0.08776634
229	0xbd70a069	-0.05874673
230	0xbdb093e1	-0.08621956
231	0xbd871742	-0.06596233
232	0x3c97efec	0.01854702
233	0x3d8fce4e	0.07021771
234	0x3d2ffed4	0.042967632
235	0x3bfe099a	0.0077526094
236	0xbd1ce86c	-0.038307592
237	0x3d4cc5d0	0.049993336
238	0xbd283c22	-0.041072972
239	0xbbd8440a	-0.0065999078
240	0x3d2b3229	0.041795883
241	0x3d0cd683	0.03438426
242	0xbc07b3e8	-0.008282639
243	0x3c749b9f	0.014929681
244	0x3c7103d7	0.014710388
245	0x3df02165	0.117251195
246	0x3c45ea91	0.012079851
247	0x3c2cc190	0.010544196
248	0xbdd17de7	-0.10229092
249	0x3bb70afc	0.0055860262
250	0xbc3f730f	-0.011685147
251	0x3cb275fd	0.021784777
252	0xbc6aa1d0	-0.014320806
253	0x3e0d4e8f	0.13799499
254	0x3db820e6	0.0899065
255	0xbda8d987	-0.08244615

fc1.bias f4 [300]
0	0x3deb7078	0.11496061
1	0xbe15f130	-0.14642787
2	0xbd1b4f94	-0.03791769
3	0xbdb4da01	-0.088306434
4	0x3d4d00ee	0.050049715
5	0x3b82167e	0.0039699664
6	0xbe48626b	-0.19568793
7	0xbbcbae9d	-0.006215884
8	0x3db7fb83	0.08983519
9	0xbd583583	-0.052785408
10	0xbe3da9dd	-0.18521829
11	0x3e34b349	0.17646517
12	0xbdf483b3	-0.11939182
13	0xbd47ee6f	-0.048811372
14	0x3d8e9646	0.06962256
15	0x3e11b5a5	0.14229448
16	0xbd8b3051	-0.06796325
17	0xbd9f0015	-0.077636875
18	0xbe51150c	-0.20418185
19	0x3e04a778	0.1295451
20	0xbd2fe034	-0.042938426
21	0x3e805cd7	0.2507083
22	0xbd966530	-0.07343519
23	0x3e211b93	0.15733175
24	0xbd86a8ba	-0.06575151
25	0x3d0ce1ee	0.03439515
26	0xbe025064	-0.12725979
27	0x3dfaf78f	0.12254249
28	0xbe19203e	-0.14953706
29	0xbe373fdf	-0.17895459
30	0xbd3ce938	-0.046120852
31	0x3e194788	0.14968693
32	0x3e3ab44a	0.18232837
33	0xbe493864	-0.19650418
34	0x3c80e149	0.015732424
35	0x3d8ca2b0	0.06866968
36	0x3d80b6c1	0.062848575
37	0xbc959c5e	-0.018263038
38	0xbe5444fe	-0.20729443
39	0xbe43b177	-0.19110666
40	0x3d9d0708	0.07667357
41	0x3dca8a35	0.09889642
42	0x3d50bf6b	0.0509638
43	0x3c0e1b72	0.008673536
44	0x3e61db25	0.22056253
45	0x3dd4cccc	0.103906244
46	0x3b2d0e9c	0.0026406413
47	0xbe4e3d87	-0.20140658
48	0x3e18526e	0.14875194
49	0x3c757138	0.014980607
50	0xbed1620b	-0.40895113
51	0xbe1bc265	-0.15210874
52	0xbe380518	-0.17970693
53	0xbe52bbb7	-0.2057942
54	0x3ddb6e7d	0.10714433
55	0xbd015883	-0.031578552
56	0x3dda3ffb	0.106567346
57	0xbd6dba32	-0.058038898
58	0x3e5ee8f8	0.21768558
59	0xbe31105b	-0.17291395
60	0x3d8a9e27	0.067684464
61	0xbd24a27b	-0.040194016
62	0x3da1b928	0.07896644
63	0x3c893d4d	0.016752863
64	0x3cb0d220	0.02158457
65	0x3cfbafa1	0.030723395
66	0xbe71e47f	-0.2362232
67	0x3e19c9d1	0.15018393
68	0x3d429842	0.047508486
69	0x3e13d6ec	0.14437455
70	0x3e3978ad	0.1811244
71	0xbe233ae3	-0.15940432
72	0xbe2bb0c4	-0.1676665
73	0xbe1af05a	-0.1513075
74	0xbe00d2c4	-0.125804
75	0x3e29bdb2	0.1657627
76	0xbd740bd1	-0.05958158
77	0xbd41b647	-0.047292974
78	0xbcb5c4b5	-0.022188524
79	0x3dd6b107	0.10482984
80	0x3d9af0d2	0.07565464
81	0x3e3524ff	0.17689894
82	0xbd3fb1e8	-0.046800524
83	0x3da6407e	0.0811777
84	0x3e8e1418	0.27749705
85	0x3e93f290	0.28895998
86	0xbe4b85df	-0.19875287
87	0xbde7daca	-0.113210276
88	0xbd8f5f7f	-0.07000636
89	0x3d3cc550	0.04608661
90	0xbdecb629	-0.11558182
91	0x3d253778	0.040336102
92	0x3daba473	0.083809756
93	0x3dce1934	0.10063401
94	0x3d157d57	0.036496487
95	0xbdf6c29d	-0.12048838
96	0x3dfb3a3b	0.12266966
97	0x3e050b13	0.12992506
98	0xbe5c9503	-0.21541218
99	0xbe1a36c1	-0.1505995
100	0x3da71a9b	0.081593715
101	0x3d7a10d0	0.06105119
102	0xbe0c013b	-0.13672344
103	0x3cf5d897	0.030010505
104	0xbdae0863	-0.084976934
105	0x3e6d3021	0.23162891
106	0x3ddf017c	0.10888955
107	0x3ea5e983	0.32404718
108	0xbe5db815	-0.21652253
109	0x3d33b4fc	0.043873772
110	0xbdca6c4a	-0.09883936
111	0x3e849e21	0.25901893
112	0xbdee2123	-0.11627414
113	0xbebe7c29	-0.37204102
114	0xbdbf1a36	-0.09331171
115	0xbdd3219c	-0.10309145
116	0x3eac2d52	0.33628327
117	0xbe6ff479	-0.23433103
118	0xbc5ac5be	-0.0133528095
119	0xbd67b436	-0.056568347
120	0xbb69bec3	-0.0035666681
121	0xbe9160d0	-0.28394175
122	0x3c539530	0.012913987
123	0x3c92b16f	0.017906873
124	0x3e04603e	0.12927338
125	0xbe6c442c	-0.2307288
126	0xbe805a8d	-0.25069085
127	0xbdb34497	-0.08753317
128	0x3de4f378	0.111792505
129	0x3dc4b682	0.09605123
130	0xbcf1e732	-0.029529188
131	0xbe09804a	-0.13427845
132	0xbe2f31bb	-0.17108814
133	0xbddbb4ff	-0.10727882
134	0x3ea774ba	0.32706243
135	0x3dca0aed	0.09865365
136	0x3e21f0af	0.1581447
137	0x3cd31af1	0.025769683
138	0x3e97b4cb	0.29630122
139	0xbc60f50c	-0.013730299
140	0xbde96d5e	-0.11397813
141	0xbe08f791	-0.13375689
142	0x3db3359a	0.08750458
143	0xbd8f7295	-0.07004277
144	0xbe7334c0	-0.23750591
145	0xbe0929a3	-0.1339479
146	0x3e436e47	0.19085036
147	0xbdde9627	-0.10868483
148	0x3e14fbb7	0.14549147
149	0xbe28650e	-0.164448
150	0xbe267d0f	-0.16258644
151	0xbd9db3cc	-0.07700309
152	0x3e4d66fe	0.2005882
153	0x3e300bbc	0.17191976
154	0x3e914fa0	0.28381062
155	0xbddde672	-0.108349696
156	0xbd9047ca	-0.07044943
157	0xbe37fb01	-0.17966844
158	0xbd3b8576	-0.045781575
159	0x3dada295	0.08478276
160	0x3d6cdab4	0.05782576
161	0x3df967f3	0.1217803
162	0x3e400f49	0.18755831
163	0xbe08801b	-0.13330118
164	0xbc7f8c03	-0.015597346
165	0xbd5d2b3c	-0.05399631
166	0x3e31697c	0.17325395
167	0xbd9da2ec	-0.076970905
168	0xbe6af1f4	-0.2294386
169	0xbe183570	-0.14864135
170	0xbd7a0b38	-0.061045855
171	0xbe4e0f63	-0.20123057
172	0x3c1ae190	0.009453192
173	0x3e8c7a21	0.27436927
174	0x3debe353	0.11517968
175	0xbc349e0e	-0.011024011
176	0xbd9c8eb6	-0.076444075
177	0xbd8c426d	-0.06848607
178	0x3d791ce8	0.060818583
179	0x3d452d00	0.04813862
180	0xbe24a2fc	-0.16077799
181	0xbe26c2c2	-0.16285232
182	0xbddcc777	-0.107802324
183	0x3d35465e	0.04425656
184	0xbb3662b9	-0.002782984
185	0xbdd3c797	-0.10340803
186	0x3e99926f	0.29994532
187	0xbd821a0b	-0.063526236
188	0x3ea52a78	0.32258964
189	0xbe2d58f0	-0.16928458
190	0x3e2b7dc8	0.167472
191	0xbe61d579	-0.2205409
192	0xbd75d586	-0.060018085
193	0xbdf2106d	-0.11819539
194	0x3caa5aba	0.020795215
195	0xbe24870f	-0.16067146
196	0xbdcc364d	-0.099712946
197	0xbdf25dae	-0.11834274
198	0x3d94df1b	0.072691165
199	0x3d42e7ef	0.04758447
200	0xbe46a19d	-0.19397588
201	0xbdf6674a	-0.120314196
202	0x3c0ad972	0.008474695
203	0xbdc6e95d	-0.09712479
204	0x3d968925	0.07350377
205	0x3d5482f7	0.05188271
206	0xbe727be9	-0.2368008
207	0x3e2269ab	0.15860622
208	0x3e83248b	0.25613818
209	0xbe680c70	-0.22660995
210	0x3d105fa8	0.035247475
211	0x3e2b51f4	0.16730481
212	0xbe19ba1a	-0.15012398
213	0x3cfcf200	0.030877113
214	0x3c138b8c	0.009005439
215	0xbdba13ba	-0.09085794
216	0x3e45b22e	0.19306251
217	0xbe408989	-0.18802465
218	0xbe806d68	-0.2508347
219	0xbe90b9de	-0.28266805
220	0x3d9c34b7	0.07627242
221	0xbcb0f4c2	-0.021601085
222	0xba83cf45	-0.0010056278
223	0x3d3a3130	0.045457065
224	0x3de4e106	0.11175732
225	0x3e063996	0.13107905
226	0x3db39c20	0.08770013
227	0xbd147ae8	-0.036250025
228	0xbce6ee67	-0.028189851
229	0xbe15cd14	-0.14629012
230	0x3e541974	0.20712835
231	0xbe06318b	-0.13104837
232	0x3e9c2232	0.3049484
233	0x3e23907f	0.1597309
234	0xbc7e3bab	-0.015517156
235	0x3e045ec2	0.12926772
236	0x3e92d8ac	0.28680933
237	0x3dc8f14d	0.098116495
238	0xbdad7b89	-0.08470828
239	0x3e7d53a4	0.24738938
240	0x3e504ddc	0.20342201
241	0x3df769a1	0.12080694
242	0xbe5f9037	-0.21832357
243	0x3e5366cf	0.20644687
244	0x3cdd0940	0.02698195
245	0x3e327a4c	0.17429465
246	0xbccba0c1	-0.024856927
247	0xbda1ebca	-0.07906301
248	0x3c939beb	0.018018683
249	0xbe9e9f7d	-0.30981055
250	0xbe3a5ca0	-0.18199396
251	0x3dc1225a	0.0943038
252	0x3e129ef6	0.14318451
253	0xbd71aa1b	-0.059000116
254	0xbe250157	-0.16113792
255	0x3e7880f2	0.24267939

fc2.weight f4 [150, 300]
0	0xbe3ccf2f	-0.1843841
1	0xbd424184	-0.04742576
2	0xbdabb571	-0.083842166
3	0xbdb95216	-0.0904886
4	0xbe0ef9d9	-0.13962497
5	0x3d9c6dff	0.076381676
6	0x3e2610a1	0.16217281
7	0x3e22665d	0.15859361
8	0xbd5789fa	-0.05262182
9	0xbe217231	-0.15766217
10	0x3bd8fb8a	0.0066217827
11	0xbdc45b9c	-0.095877856
12	0x3d63f565	0.05565395
13	0xbd3aef46	-0.045638345
14	0xbda80cf9	-0.08205599
15	0xbdcdec67	-0.10054856
16	0x3dea6dec	0.11446747
17	0x3e69fe3b	0.22850887
18	0xbd7a8e4b	-0.061170857
19	0xbe29407f	-0.1652851
20	0x3e3e8bde	0.18608043
21	0xbc049fda	-0.008094752
22	0x3e0b32ea	0.13593641
23	0x3e89aede	0.26891226
24	0xbcf732f8	-0.030175671
25	0xbd102b96	-0.035197817
26	0x3ce53994	0.027981557
27	0x3d562b03	0.052287113
28	0xbc3e95d2	-0.0116324
29	0xbdd27bc4	-0.10277513
30	0xbd49a71c	-0.049231634
31	0xbcbc93a0	-0.023019612
32	0x3e07fb9a	0.13279572
33	0xbbd1073d	-0.0063790367
34	0x3ddf3df5	0.10900489
35	0x3aa6be6e	0.0012721547
36	0xbd80c25f	-0.06287073
37	0x3df2dc18	0.11858386
38	0x3ec35f9c	0.38158882
39	0x3bc0a0a0	0.005878523
40	0x3cdca17b	0.026932469
41	0x3da97fa2	0.08276297
42	0x3b608b31	0.0034262652
43	0x3d27d633	0.04097576
44	0xbeeba4f4	-0.46024287
45	0xbd24d4f6	-0.040242158
46	0x3dee3bcb	0.11632498
47	0x3d2f20d6	0.042755924
48	0xbe777d78	-0.24168956
49	0x3d19c301	0.037539486
50	0x3dd6aee7	0.10482579
51	0xbe46e930	-0.19424891
52	0x3d9835a8	0.07432109
53	0x3e3e2826	0.18570003
54	0xbdb7f671	-0.08982552
55	0xbd9f882a	-0.07789643
56	0xbe09a7e6	-0.13442954
57	0xbe0d8fe7	-0.13824426
58	0x3d3a092f	0.045418914
59	0xbdd9cd5d	-0.10634873
60	0xbd1d8f26	-0.038466595
61	0xbe8b7d60	-0.2724409
62	0x3e145284	0.14484602
63	0xbca97f73	-0.020690655
64	0xbd8181ed	-0.063236095
65	0xbe5508e8	-0.20804179
66	0x3f096487	0.5366902
67	0xbdcfbae5	-0.10143069
68	0x3d526057	0.051361408
69	0x3eb4b006	0.35290545
70	0x3e047e77	0.12938868
71	0x3de1f4f8	0.11033052
72	0xbce1f0c9	-0.027580636
73	0x3cd1d04b	0.025612017
74	0xbc4292a5	-0.011875783
75	0x3d8a1909	0.06743056
76	0x3dcfbb0f	0.101431005
77	0x3ca2572a	0.019816954
78	0xbd8a60fb	-0.06756779
79	0xbce7107b	-0.0282061
80	0x3e1500f4	0.14551145
81	0x3d32c6e8	0.043646723
82	0x3d9352b3	0.07193508
83	0x3cd85b6b	0.026410779
84	0xbc877cc0	-0.016538978
85	0xbe8341cc	-0.25636137
86	0xbe13d4db	-0.14436667
87	0xbb471d13	-0.003038232
88	0x3d37eb1b	0.04490195
89	0xbc3b06f5	-0.011415233
90	0x3db1f503	0.086893104
91	0x3ddd288a	0.10798748
92	0x3dab7afa	0.08373065
93	0xbe4e0f4f	-0.20123027
94	0x3cfa7803	0.030574804
95	0x3dc0816b	0.093996845
96	0x3cccc10d	0.024994398
97	0xbded2b43	-0.11580517
98	0xbd2efd08	-0.04272178
99	0x3e11bc23	0.14231925
100	0x3db4e9c0	0.08833647
101	0x3e22530d	0.15851994
102	0x3dcbee0a	0.09957512
103	0x3d908072	0.07055749
104	0x3e3f3288	0.1867162
105	0x3d8be552	0.06830849
106	0xbd6852d7	-0.056719627
107	0xbbd775e0	-0.006575331
108	0x3ddd3bdb	0.10802432
109	0x3da91cb8	0.08257431
110	0x3eb370d5	0.35047022
111	0xbd4c68a4	-0.04990448
112	0xbc3a8dd4	-0.0113863535
113	0x3df46384	0.119330436
114	0xbd8841c0	-0.06653166
115	0xbd2ed84f	-0.042686757
116	0x3d91a913	0.071123265
117	0x3ce50416	0.02795605
118	0x3e0ae4e7	0.13563882
119	0x3e5f48af	0.2180507
120	0x3cc63c42	0.024198655
121	0x3de19540	0.11014795
122	0xbda0357e	-0.07822703
123	0xbd77b2f4	-0.060473397
124	0x3dd31058	0.10305852
125	0x3e87320f	0.2640538
126	0xbd2b24d9	-0.041783188
127	0x3c51600a	0.012779245
128	0x3de0b2ce	0.10971604
129	0x3e00d503	0.12581258
130	0xbd7787c0	-0.060432196
131	0xbd861662	-0.06547238
132	0xbe0eb346	-0.13935575
133	0xbe974e9c	-0.29552162
134	0x3db3974b	0.08769091
135	0x3d43026f	0.047609743
136	0x3d7f785f	0.062370654
137	0xbc6fce92	-0.014636653
138	0xbebcf0a0	-0.36902332
139	0x3df870ad	0.12130866
140	0xbc24e33f	-0.010063945
141	0x3c8c3a32	0.017117593
142	0xbdc667ca	-0.09687765
143	0x3e29bff4	0.1657713
144	0x3eab795b	0.33491024
145	0x3e27796a	0.1635491
146	0xbddca666	-0.107739255
147	0xbdea8a5e	-0.11452173
148	0xbd93e77e	-0.07221888
149	0xbc7a7154	-0.015285809
150	0xbcad3d51	-0.021147402
151	0xbe0fad24	-0.14030892
152	0x3e0a940c	0.13533038
153	0xbd84a26a	-0.064762905
154	0xbc68cdad	-0.014209193
155	0x3d56cdb8	0.052442282
156	0x3e3685c7	0.1782447
157	0x3da44cf5	0.08022491
158	0x3f2a08b2	0.6641952
159	0x3dd81b21	0.105520494
160	0xbd99c3ab	-0.07508024
161	0xbd26e6ab	-0.040747326
162	0xbe78ee61	-0.24309684
163	0x3e909888	0.28241372
164	0xbd903cc2	-0.07042839
165	0xbd8ac9ff	-0.06776809
166	0xbd8ac8ac	-0.067765564
167	0x3de30df0	0.11086643
168	0xbe50104d	-0.20318718
169	0x3e107ac9	0.14109339
170	0xbe16d9a7	-0.14731465
171	0x3d37dac0	0.04488635
172	0x3d017eac	0.031614944
173	0xbf4d776d	-0.80260354
174	0x3e4eaa0a	0.20182052
175	0x3c6a037b	0.014283056
176	0x39b61d4b	0.0003473557
177	0x3cc70cba	0.02429806
178	0x3d939866	0.07206802
179	0xbcd0a3f9	-0.025468813
180	0xbe3120e1	-0.17297699
181	0x3cc3664b	0.023852488
182	0x3e0161d7	0.12634979
183	0x3d80690d	0.06270037
184	0x3ce23f2b	0.027618011
185	0xbd3e4f5c	-0.0464624
186	0x3d161b22	0.03664697
187	0x3d6216d5	0.055197556
188	0xbd281fd7	-0.04104599
189	0xbdb78e3c	-0.08962676
190	0xbc5a9eef	-0.013343557
191	0x3ceae8a9	0.028675394
192	0xbe18f64d	-0.14937706
193	0xbb3d3f17	-0.0028876716
194	0x3da660b2	0.08123912
195	0xbd7c93f4	-0.061664537
196	0x3dd3d465	0.103432454
197	0x3ceffdcc	0.029295824
198	0x3d6c1492	0.057636805
199	0xbd78106f	-0.060562547
200	0x3cb75254	0.022378124
201	0x3c181b90	0.009283915
202	0x3d25fe7e	0.040525906
203	0x3c5d6ea2	0.013515146
204	0x3df2e6da	0.11860438
205	0xbd1e40d5	-0.038636047
206	0x3e1f413d	0.1555223
207	0xbe8d68fd	-0.27619162
208	0xbf17a4db	-0.59235924
209	0x3f06c5ea	0.5264574
210	0xbb96fac8	-0.004607532
211	0xbdb10dff	-0.08645248
212	0x3c447fab	0.011993329
213	0x3d97e02e	0.07415806
214	0x3d7c6897	0.061623182
215	0xb72ecd1c	-1.0418964e-05
216	0xbc791159	-0.01520189
217	0x3e2b950f	0.1675608
218	0x3db76c6a	0.08956225
219	0x3e4438d8	0.19162309
220	0xbd3d3e13	-0.046201777
221	0xbdc31cad	-0.09526954
222	0xbd26ffe8	-0.040771395
223	0xbdef64fa	-0.116891816
224	0xbf019d95	-0.50631076
225	0xbddee25f	-0.108830206
226	0xbea23cd7	-0.31687042
227	0x3e3810da	0.17975178
228	0x3d8ba931	0.0681938
229	0xbd93ea4e	-0.072224244
230	0x3de29ed6	0.11065452
231	0xbdbb0179	-0.0913114
232	0xbd9c0514	-0.07618156
233	0xbdc56a18	-0.096393764
234	0xbdc4f6d2	-0.0961739
235	0xbe3c34fe	-0.1837959
236	0x3df02256	0.11725299
237	0xbc6ed661	-0.014577479
238	0x3e01603a	0.12634364
239	0x3d11084d	0.035408307
240	0xbd053d4f	-0.03252917
241	0x3e07ba2b	0.13254611
242	0x3cef0fb9	0.029182302
243	0x3c75d14d	0.0150035145
244	0x3da954dd	0.082681395
245	0xbe92d0f1	-0.28675035
246	0x3d4243a4	0.04742779
247	0x3d6fb563	0.058522593
248	0xbde765f5	-0.11298744
249	0x3d28607f	0.04110765
250	0x3c65ff62	0.014037939
251	0x3d11d2fc	0.0356016
252	0x3cdb032e	0.026734915
253	0x3e063b09	0.13108458
254	0x3d326477	0.043552842
255	0xbd2dca00	-0.04242897

fc2.bias f4 [150]
0	0xbe5e4721	-0.21706821
1	0x3d35efe2	0.044418223
2	0x3e76ba0d	0.2409441
3	0xbe356028	-0.17712462
4	0xbd203210	-0.039110243
5	0xbd72577c	-0.059165463
6	0xbed54993	-0.41657695
7	0xbe12b520	-0.14326906
8	0x3d667ccd	0.056271363
9	0xbdd333f6	-0.10312645
10	0x3e5b918e	0.21442243
11	0x3ecde7ee	0.4021601
12	0x3e1ef3f1	0.15522744
13	0xbd5471e5	-0.05186643
14	0x3df1d8f8	0.11808962
15	0xbeb447af	-0.3521094
16	0xbe0f5481	-0.1399708
17	0x3e722d69	0.23650135
18	0x3d876f02	0.0661297
19	0x3dbfca68	0.09364778
20	0xbebd2707	-0.36943838
21	0xbe7c03cd	-0.24610825
22	0xbdfe9029	-0.1242984
23	0xbdee07cc	-0.11622581
24	0x3e89b654	0.26896918
25	0x3e5f8e84	0.21831709
26	0xbcf30905	-0.029667387
27	0xbe06da4e	-0.13169214
28	0xbecd566d	-0.40105
29	0x3e3c1735	0.18368228
30	0xbed6487b	-0.41852173
31	0x3e28d728	0.16488326
32	0x3ead9cc5	0.33908668
33	0x3e9adfa6	0.30248755
34	0x3d5692e6	0.052386187
35	0x3f00d1c1	0.5032006
36	0x3e214227	0.15747891
37	0x3cd0e385	0.025499115
38	0x3cbe5fcf	0.023239044
39	0x3c5c534a	0.013447592
40	0xbe67e4ce	-0.22645876
41	0x3ebb6d58	0.3660686
42	0xbea7f0bf	-0.32800862
43	0x3e6f5381	0.23371698
44	0x3df56999	0.11983032
45	0x3e9b1a94	0.30293715
46	0x3dfe06f1	0.12403668
47	0xbea60e83	-0.32432947
48	0x3eb0dffe	0.34545892
49	0x3e9ff919	0.31244734
50	0x3dfbbf85	0.12292389
51	0xbe067293	-0.13129644
52	0x3ea0a373	0.31374702
53	0xbe2b023a	-0.16700068
54	0xbe2b7485	-0.16743667
55	0xbdcb2095	-0.09918324
56	0xbe856366	-0.26052397
57	0xbe909690	-0.2823987
58	0xbe0b74f5	-0.13618834
59	0x3d7eb7aa	0.062186874
60	0xbc175171	-0.009235726
61	0xbe7deb84	-0.24796873
62	0x3e054f7e	0.13018605
63	0x3d5ef51c	0.054432973
64	0xbc50f04d	-0.012752605
65	0x3b8a399e	0.0042182943
66	0xbdcdda7a	-0.10051437
67	0xbeb1054b	-0.3457435
68	0xbe809e5b	-0.25120816
69	0x3eb0b276	0.34511155
70	0xbe3f5b08	-0.1868707
71	0x3eae30b4	0.34021533
72	0xbe7a7a85	-0.244608
73	0xbe753622	-0.23946431
74	0x3e97ff0e	0.2968678
75	0xbead9fc0	-0.33910942
76	0x3ec5f921	0.38666633
77	0xbcd0e3a0	-0.025499165
78	0xbc2f25bf	-0.010690152
79	0x3ee06ef3	0.43834648
80	0xbbfdbe9b	-0.007743669
81	0x3ed42c02	0.41439825
82	0xbeeff8a0	-0.46869373
83	0x3da7b340	0.08188486
84	0x3e399c3e	0.18126008
85	0xbdb6102b	-0.088898025
86	0xbea65644	-0.3248769
87	0x3eaac838	0.3335588
88	0xbea9a7f2	-0.33135945
89	0x3e2c2c93	0.16813879
90	0x3ec61535	0.38688055
91	0xbd52dd8d	-0.05148082
92	0xbd8e9881	-0.069626816
93	0xbe501bab	-0.20323054
94	0x3ea20b66	0.3164932
95	0x3e8e87cc	0.2783798
96	0x3e082bfe	0.13298032
97	0xbd2d8c47	-0.042370107
98	0xbe60332c	-0.2189452
99	0xbe649954	-0.22324115
100	0xbdff3403	-0.12461092
101	0xbd82b31a	-0.06381817
102	0x3ee3b841	0.44476512
103	0x3ed879b4	0.42280352
104	0xbdb1bfcb	-0.0867916
105	0x3eee0f06	0.46495837
106	0x3eae08ad	0.33990994
107	0xbc1fc4a3	-0.009751472
108	0xbc9b523b	-0.018960109
109	0xbe0816dd	-0.13289972
110	0xbd9dd3f7	-0.07706445
111	0xbe10f1a0	-0.14154673
112	0x3e8058f3	0.25067863
113	0x3e555114	0.2083171
114	0x3ee8f7d7	0.45501587
115	0xbe990307	-0.29885122
116	0x3e558160	0.20850134
117	0x3dfc8b42	0.12331249
118	0x3e590d40	0.2119646
119	0x3eba954c	0.3644203
120	0x3d09f880	0.033684254
121	0xbe1ee4a1	-0.15516903
122	0x3eae1493	0.34000072
123	0x3e8eaf3f	0.27868077
124	0xbe53a488	-0.20668232
125	0x3e147c89	0.14500631
126	0x3d448803	0.047981273
127	0x3ebaa801	0.36456302
128	0xbe553819	-0.20822181
129	0x3d0ba210	0.0340901
130	0x3e8e7101	0.2782059
131	0x3e84175d	0.25799075
132	0xbd776380	-0.060397625
133	0x3de753b6	0.112952635
134	0xbdf8a25e	-0.12140344
135	0xbe489065	-0.19586332
136	0x3ebe153b	0.37125573
137	0xbcd58e04	-0.026068695
138	0xbcd9998a	-0.026562471
139	0xbead10da	-0.3380192
140	0xbed17efd	-0.40917197
141	0xbe8c44df	-0.27396294
142	0xbdf819c5	-0.1211429
143	0x3e2625d9	0.16225375
144	0xbe233f90	-0.15942216
145	0x3d2b3801	0.041801456
146	0xbe525289	-0.20539297
147	0x3e891897	0.26776573
148	0x3eb2157f	0.34782025
149	0xbe6b984f	-0.2300732

fc3.weight f4 [2, 150]
0	0x3db11855	0.08647219
1	0xbdb6197a	-0.08891578
2	0xbd708786	-0.058722995
3	0xbd1270f6	-0.03575226
4	0xbd6ab2b0	-0.057299316
5	0x3d9ae166	0.075625226
6	0x3ddd4123	0.108034395
7	0xbd0013f9	-0.031269047
8	0xbda0a91f	-0.07844757
9	0xbd8ce38b	-0.06879338
10	0xbda2f206	-0.079563186
11	0xbcfd5155	-0.030922571
12	0xbd9efcf1	-0.077630885
13	0x3cabca7a	0.020970572
14	0xbce4e7b7	-0.027942521
15	0xbd6b4ba9	-0.057445202
16	0x3d4ae19d	0.049531568
17	0xbb494988	-0.0030713994
18	0x3c48cc27	0.012255705
19	0x3dcbcf4c	0.09951648
20	0x3d74ab53	0.0597337
21	0x3bb15e58	0.005412858
22	0xbd9e48f6	-0.0772876
23	0x3d882309	0.066473074
24	0x3d6318a9	0.05544344
25	0xbcc77029	-0.024345474
26	0xbd95d5ef	-0.07316195
27	0xbd753f82	-0.05987502
28	0x3ceb0dfa	0.028693188
29	0x3d8d5090	0.06900132
30	0x3dbe442a	0.09290345
31	0x3d86fc9c	0.0659115
32	0x3d85afd3	0.065276764
33	0xbd6dc05a	-0.05804477
34	0xbd91563c	-0.07096526
35	0xbdbaab15	-0.091146626
36	0xbdb3dfab	-0.08782896
37	0xbd5962a3	-0.053072583
38	0xbd391d66	-0.045194052
39	0x3d3c96fe	0.046042435
40	0x3d99b9ec	0.07506165
41	0xbd649dbe	-0.055814497
42	0x3d8671bb	0.06564661
43	0xbdc345fa	-0.09534831
44	0xbda707fd	-0.081558205
45	0xb9910691	-0.00027661448
46	0xbd3def32	-0.046370693
47	0x3da57e3b	0.08080717
48	0xbdd0fba6	-0.10204248
49	0x3cbf6f03	0.023368364
50	0xbd43538a	-0.04768709
51	0xbd80f94d	-0.0629755
52	0xbc833d26	-0.016020369
53	0x3d1fcb4f	0.03901225
54	0xbcbfeb27	-0.023427559
55	0x3da8b396	0.08237378
56	0xbd9d6c09	-0.07686622
57	0x3d48aa2b	0.04899041
58	0x3dade4c6	0.08490901
59	0x3d60fe38	0.054929942
60	0xbae7cf12	-0.0017685613
61	0x3dcbdb2e	0.099539146
62	0xbda3e0d9	-0.08001871
63	0x3cea3ee6	0.028594445
64	0xbdbffda0	-0.09374547
65	0xbd606b6c	-0.054789945
66	0xbdaf88f5	-0.08571044
67	0xbc12cd61	-0.008960099
68	0x3bc82ae1	0.006108627
69	0xbd2fc674	-0.04291387
70	0x3dc6c424	0.097053796
71	0xbd3f5d29	-0.046719704
72	0x3d8bd6a9	0.068280526
73	0x3d819b3b	0.06328436
74	0xbcefe669	-0.029284673
75	0xbd5b6a50	-0.053568184
76	0xbca76525	-0.020433972
77	0xbd199bb8	-0.03750202
78	0x3d2b0194	0.041749552
79	0xbd9289b1	-0.07155169
80	0x3db999d2	0.09062542
81	0x3d876c5a	0.06612463
82	0x3e02229c	0.12708515
83	0xbd4aef03	-0.049544346
84	0xbd783881	-0.06060076
85	0x3d6e4a39	0.058176253
86	0x3d3ff869	0.04686776
87	0x3d4d252d	0.05008428
88	0x3d77af93	0.060470175
89	0xbd9388db	-0.072038375
90	0x3db01f14	0.08599678
91	0x3db0a875	0.08625881
92	0x3d963eeb	0.073362194
93	0x3ca603a0	0.0202654
94	0x3d494821	0.049141053
95	0xbd336cc9	-0.043804917
96	0xbd0a50ad	-0.033768345
97	0xbdbdb298	-0.0926258
98	0x3dcf3d0f	0.10119068
99	0x3d02309e	0.031784646
100	0xbd976ae9	-0.07393438
101	0x3d9f4a27	0.07777815
102	0xbcfa7a3d	-0.030575866
103	0xbd7f08cd	-0.062264252
104	0x3d967003	0.07345583
105	0xbce1c240	-0.027558446
106	0x3cb82127	0.022476746
107	0xbd5fdf93	-0.054656576
108	0xbd8fdf7d	-0.07025049
109	0x3d9c3b88	0.07628542
110	0x3c30c914	0.010790128
111	0x3d15276d	0.036414552
112	0xbd92e83e	-0.07173203
113	0x3cb48b6a	0.022039134
114	0xbd722abc	-0.059122786
115	0xbd808911	-0.06276143
116	0xbdb50c2a	-0.08840211
117	0xbd695373	-0.05696435
118	0x3cf00721	0.029300274
119	0x3ddd4ec3	0.10806038
120	0x3db6a562	0.08918263
121	0x3b7b79c3	0.0038372136
122	0xbd4eee72	-0.050520368
123	0xbd57385e	-0.05254399
124	0xbd8aaa27	-0.06770735
125	0xbda762d3	-0.08173146
126	0x3d0d72fa	0.03453348
127	0xbd7cb9f4	-0.061700776
128	0x3db2e116	0.08734338
129	0x3d67644a	0.056492127
130	0xbc77ab20	-0.015116483
131	0xbd1e64ee	-0.038670473
132	0xbdb703d1	-0.08936275
133	0xbd195822	-0.037437566
134	0x3d94cc55	0.07265536
135	0x3d6afe41	0.05737138
136	0x3d51e032	0.0512392
137	0xbba9e425	-0.0051846677
138	0x3d8253ff	0.06363677
139	0xbcdbf41e	-0.026849803
140	0x3c934bad	0.017980421
141	0x3d8d759a	0.06907196
142	0x3c604e31	0.013690517
143	0xbd250799	-0.04029045
144	0xbd9c2fd4	-0.0762631
145	0xbda20882	-0.07911779
146	0x3da2fd45	0.079584636
147	0xbd5db396	-0.054126345
148	0xbd52f5ad	-0.051503826
149	0x3c3ebbcf	0.011641457
150	0xbcc99af9	-0.02461003
151	0x3cbf189f	0.02332717
152	0x3d4cbf24	0.049986973
153	0x3d856b7f	0.06514644
154	0x3d72fdde	0.059324138
155	0xbcd3f6b9	-0.025874482
156	0xbc75fbcf	-0.015013649
157	0x3d96fd8e	0.073725805
158	0x3cfd96d9	0.030955719
159	0x3d0eb221	0.034837846
160	0x3d6e27b1	0.05814332
161	0x3dd4fa21	0.10399271
162	0x3d5d2dba	0.053998686
163	0xbdb67bcb	-0.089103304
164	0x3da86c61	0.08223797
165	0x3d297ecd	0.041380692
166	0xbd6b953b	-0.057515364
167	0x3db6f1df	0.08932852
168	0xbdabfa49	-0.083973475
169	0xbb630fcb	-0.0034646865
170	0xbd56f3c9	-0.052478585
171	0xbdde4eff	-0.10854911
172	0x3cca7b7e	0.024717089
173	0xbd17a02b	-0.037017982
174	0xbd7f2b83	-0.062297355
175	0x3db75dc3	0.089534305
176	0x3d12d448	0.03584698
177	0x3d5cfd0e	0.05395227
178	0xbdb3e7f7	-0.08784478
179	0xbd4cb71d	-0.049979318
180	0xbd40cb1c	-0.0470687
181	0xbd8f6675	-0.07001964
182	0xbd8ef5e5	-0.069804944
183	0x3d653291	0.055956427
184	0x3d69d6e9	0.05708972
185	0x3ceef8b7	0.02917133
186	0x3c0065da	0.007836783
187	0x3d4e2dde	0.05033671
188	0x3d72ad0f	0.059247073
189	0xbd80850a	-0.06275375
190	0xbd65bc2c	-0.056087658
191	0x3da565f7	0.08076089
192	0xbd1dcb68	-0.03852406
193	0x3beeaf86	0.0072841076
194	0x3c893868	0.01675053
195	0xbdd4a5c5	-0.103831805
196	0x3d965b17	0.07341593
197	0xbc992280	-0.018693209
198	0x3c56a545	0.013100927
199	0xbda2d400	-0.07950592
200	0x3d4d6928	0.050149113
201	0x3d446e89	0.047956977
202	0x3dcae4f9	0.09906954
203	0xbd754fc6	-0.05989053
204	0x3d8e90df	0.06961226
205	0xbc63b1b9	-0.013897353
206	0x3cc196ed	0.023631537
207	0xbd7775ec	-0.060415193
208	0xbcdbcee7	-0.026832057
209	0xbd4be8d9	-0.049782608
210	0x3dcc8b95	0.09987561
211	0xbc6844fa	-0.014176602
212	0x3d28e0a8	0.041229874
213	0xbdac4520	-0.08411622
214	0x3c96e545	0.018419871
215	0x3d85e3f8	0.06537622
216	0x3cbdfa91	0.023190768
217	0xbdc41b81	-0.095755585
218	0xbdcfcd10	-0.101465344
219	0x3d8797cd	0.066207506
220	0xbd2973fe	-0.041370384
221	0x3d3c22d4	0.045931652
222	0xbd6c96db	-0.057761054
223	0xbd6962fd	-0.05697917
224	0x3daec85b	0.085343085
225	0x3d81931f	0.06326889
226	0x3dd4c3b8	0.10388893
227	0x3d917e2f	0.07104146
228	0xbd78020b	-0.060548823
229	0x3d254e01	0.040357593
230	0xbc91d8cb	-0.01780357
231	0xbd933b0c	-0.07188997
232	0xbc33c9da	-0.010973418
233	0x3d3b65f4	0.045751527
234	0x3d30797a	0.0430846
235	0xbd6605ff	-0.056158062
236	0xbd9bf565	-0.07615165
237	0xbd5c93a1	-0.053851727
238	0xbd00aff1	-0.03141779
239	0x3d435a0c	0.047693297
240	0xbd43b973	-0.04778428
241	0xbcb35081	-0.021888973
242	0xbcf8dbb8	-0.030378208
243	0xbd9f41e4	-0.077762395
244	0xbd5cbd95	-0.053891737
245	0x3d6275d4	0.05528815
246	0x3d8fc9bd	0.070209004
247	0x3bb0831e	0.005386724
248	0xbc25dace	-0.010122968
249	0xbd898ff1	-0.06716908
250	0x3cfcc535	0.030855754
251	0xbd35b0ee	-0.044358186
252	0x3dcd61ba	0.100284055
253	0x3d85ec38	0.06539196
254	0xbd2317c9	-0.039817605
255	0x3dcf0e61	0.101101644

fc3.bias f4 [2]
0	0x3d7fc45f	0.062443133
1	0xbdc6158b	-0.09672078
